Assets/Models/NNBaseline1/ActionClassifier.onnx (onnx, 34081 bytes, 4 tensors)

fc1.weight f4 [100, 51]
00000000: 9e7d 7c3e fd96 4d3e 998b 543e b850 053e
00000010: 3efa c03d f801 6c3d 96ca 033e 75d5 f23d
00000020: c275 783e 9500 873d f265 b53d e691 483d
00000030: 4baa 823e d3f1 313c 9ef9 063d 61ab 1a3d
00000040: b291 473d efa1 c23d d173 033e 9c29 013e
00000050: f11b 823e 811c 683e 4891 813e a5d4 e73d
00000060: 653d 1f3e f0cd 623e aa17 813e 0ef8 ac3d
00000070: 3232 503e 7e13 7d3e ef82 7d3e d317 513b
00000080: 3649 ca3d b4db 5e3e 5667 ed3d f7ed 8dbc
00000090: e429 9f3d 29bc ff3d 4d98 0b3e 4b20 493e
000000a0: 876b 213e 25ce 683e 302e 9b3d 248a e83c
000000b0: f990 f83d 55dc 6e3e f59c d03c 48f5 e03c
000000c0: 52dd 883d 7146 3d3e 6b9a 963d f5ac 033e
000000d0: 406d 3c3e 046f 593d 3286 4e3e bbad b73d
000000e0: e240 1e3e 6d01 a13d 4a09 c13c bb21 be3d
000000f0: 7c53 783d 5d22 293e dc36 fb3d 6b01 6d3e
00000100: ae49 a73d 1871 2c3e 343b 1f3d 8d7c 673e
00000110: 92ad 5a3d 8afa 823e 6a11 833e 526d 7a3e
00000120: 5f08 133e 52f8 503e 69f0 6e3d 3941 743c
00000130: 18db 473e 019e 493e b638 a33b 2cf0 3f3e
00000140: faac 563e da3f 49bc fbb7 2b3c 273f e53d
00000150: 2f73 803e 96ec 383e 2a04 833e 7894 6c3e
00000160: ef25 a03d dc07 8a3d ef9e f93d 6368 1f3e
00000170: 2fb5 0e3e 58d8 7d3d 88cd 173e 36cb e13d
00000180: 4053 af3d 429c 5e3d 96e2 0c3e 7438 1e3e
00000190: b43b 503e fdc2 013e a35c 403e cbc9 073d
000001a0: 082d 033e 437e 0e3e 1946 b23c 32a5 523d
000001b0: baa3 bc3c e00b 863e 59b6 713e dbc0 2f3e
000001c0: 3f63 1d3e 6e14 863e 9088 713e 6065 e23c
000001d0: e6e3 183e 207d 403e 4928 1b3e dc0d 333e
000001e0: 0014 553d d756 123e 6f8c 1b3e 40ec 593d
000001f0: e913 dd3d 3d99 533e ef7f 833e d7aa b93d
00000200: 3dd1 1a3d 3500 583e 0b0f 7d3e d617 583b
00000210: 9ba1 763e b503 163e 4bed 483e 2d59 683e
00000220: 53ae b23b c603 e83d 6c6c 6c3e 3b72 a93d
00000230: 08ef af3d edaf 933d 94f5 ea3c 734a 273e
00000240: 2614 493e 24b9 713d db5d 5c3e bb85 7e3e
00000250: 5e6d 753e 4030 793e 6fc3 4b3e 6252 3e3e
00000260: 8b34 aa3d b560 123e 217a 203e a392 d03d
00000270: 609c 523e 55f8 3b3e 5ea7 da3d 37b6 4c3e
00000280: 1b2c 703e fea7 a73d 5d2f 873c da22 2c3d
00000290: e80a 073e a036 bd3d 7f11 6dba b9cf b23d
000002a0: 531e 053e 6398 843e e218 bdbb 92ab bc3d
000002b0: 990e 6a3e e58d 8a3d 2d51 813d 0e64 383e
000002c0: 02c7 923c 5d46 533e 9e91 253e 095b 943c
000002d0: bdec 843d f39c f5bc ef5c f43d 7a6d 3f3e
000002e0: 5c2c 183e 4ad1 de3b 863a 723e 0102 af3d
000002f0: b09e 2a3e b87c e13d 73d3 1e3e 0c32 953d
00000300: d650 29bc ebf4 073e 1c0a 273c e797 123e
00000310: 3550 73bb d655 a03d 5f0f ea3c 170b 373e
00000320: ee07 533e 142b 903d 682b b23d 72e8 163e
00000330: 2149 0f3d 1880 9dbc 957e a0bd 5103 82bd
00000340: 5dae 41be 0bda efbd 7c42 15be 4da9 7d3d
00000350: ed6e 8cba f305 31be 9da0 103d 5459 c4bc
00000360: bac1 84bc 5fa9 27be c11a 83bc 343a 4c3d
00000370: 0b3e a83b b771 bcbd 0118 12be 1ae0 9dbc
00000380: 0f8f 73bc 5a23 3ebe 11c8 f8bd c2db 00be
00000390: 21f8 9dbd 4bf7 5b3c 6f0d 14be d5ee 1dbe
000003a0: 6966 ecbc ab6f debd 4c2f a93b 6dd1 3bbe
000003b0: bf75 10be c6e1 213d 1a03 16be 4d30 3a3d
000003c0: 36ae d1bd a161 71bc 0e44 1cbd 8f77 143d
000003d0: 6f34 8cbd aaf9 963c d98c 85bd 89be 15be
000003e0: eb61 62bd 1671 593d 2a0a a6bd 275a 0dbe
000003f0: ee11 b73c 941d 0abe babf 0cbd 1caf 583d
0.24657294 0.20077129 0.20756377 0.13019073 0.0942273 0.057619065 0.12870249 0.1185712
0.24263671 0.06591908 0.08857335 0.048967265 0.25520548 0.010860878 0.032952897 0.037761096
0.04872293 0.09503543 0.12837149 0.12613529 0.25411943 0.22667123 0.25306153 0.113198556
0.15550764 0.22148871 0.25213367 0.0844575 0.20331648 0.24714467 0.24756978 0.003190507
0.09877245 0.21763498 0.115919754 -0.017325385 0.07771662 0.124870606 0.13632317 0.19641225
0.15763675 0.22734888 0.07577169 0.028386183 0.12137026 0.23326237 0.025465468 0.02746071
0.066828385 0.18483903 0.07353672 0.12858947 0.1840105 0.05308439 0.20168379 0.08968683
0.15454438 0.078616 0.023564 0.09283777 0.060626492 0.16517015 0.12266323 0.23145072
0.0816835 0.16840017 0.03887482 0.22606106 0.053388186 0.2558177 0.25599223 0.24455765
0.14358662 0.20407227 0.05833474 0.014908128 0.19517171 0.1968918 0.0049811257 0.18743962
0.20964423 -0.01228329 0.010480876 0.11193686 0.25087878 0.18059 0.25589114 0.23103511
0.07819735 0.0673978 0.12188517 0.15567164 0.13936304 0.0619739 0.14824498 0.110250875
0.085608006 0.054348238 0.1375831 0.15451223 0.20335275 0.12672038 0.18785338 0.03315143
0.12810147 0.13915353 0.02176194 0.051427074 0.02302729 0.26180935 0.23604716 0.17163412
0.1536989 0.26187462 0.2358725 0.02763623 0.14930686 0.18797731 0.15152086 0.17485756
0.052021027 0.1429094 0.1519029 0.05320382 0.10794813 0.20663925 0.25683543 0.09065788
0.0377972 0.21093829 0.2471277 0.0032973192 0.24085085 0.14649852 0.1962177 0.22690268
0.00545291 0.11328845 0.23088235 0.08273741 0.085905135 0.072112896 0.028681554 0.16336994
0.19636592 0.059014454 0.21520178 0.24855702 0.23967502 0.24334812 0.19898771 0.18586114
0.08310803 0.14294703 0.15671588 0.10184219 0.20567465 0.1835645 0.10676454 0.19991384
0.23454325 0.08186339 0.016502077 0.042025425 0.13187754 0.092389345 -0.00090434396 0.08731026
0.12999849 0.25897512 -0.0057707885 0.09212412 0.22857131 0.067653455 0.06314311 0.18006918
0.01791716 0.2063231 0.1616883 0.018109815 0.06490467 -0.029982066 0.11931788 0.18694106
0.14860672 0.0067998515 0.23655137 0.08545304 0.16662097 0.11010116 0.15510349 0.07284936
-0.010334214 0.13277023 0.010195281 0.14315759 -0.0037126665 0.07828872 0.028571783 0.17875324
0.20608494 0.070394665 0.08699685 0.14737108 0.03498185 -0.019226119 -0.078366436 -0.06348289
-0.1891417 -0.1171151 -0.14576143 0.061929036 -0.0010714211 -0.17287426 0.035309423 -0.023968376
-0.016205657 -0.16373204 -0.016003968 0.049860194 0.005134349 -0.09201377 -0.1426697 -0.019271899
-0.014865651 -0.18568173 -0.12147535 -0.12583831 -0.077133425 0.013425658 -0.1445825 -0.15423138
-0.028857427 -0.10861143 0.005163109 -0.18341608 -0.14107417 0.039521955 -0.1464962 0.04545622
-0.10238306 -0.014732749 -0.03815084 0.036246832 -0.068459384 0.018429596 -0.06521005 -0.14623465
-0.055269163 0.053086363 -0.081074074 -0.13803922 0.022347417 -0.13487846 -0.034362532 0.052901372

fc1.bias f4 [100]
00000000: f54d 433e 4cc7 323e c01a 163e e0be 753e
00000010: f7cc 1cbe 8896 7fbd 793d fdbb 5a3d 823e
00000020: eec8 2f3e f63a 8f3c 8969 28be 224a 453d
00000030: ee66 c13b a242 8f3d 24fc 533d 5852 9f3d
00000040: 4129 533e fc48 233e 9e82 4c3e e81f 4c3e
00000050: 6420 bc3d 53d4 663d 48ea 29bd 2135 393e
00000060: 50e9 6dbd e6ce b63c 2ab5 74bd e97f 9fbd
00000070: cd59 223e 63ff 323e 849e 0f3e ef6c 9cbd
00000080: a347 183e 3a73 e83d 7fc4 613d bcff 17be
00000090: c82d 023e 6050 ae3d a461 543e 1b58 02be
000000a0: 46f3 133e a900 683e 4770 403b e882 793e
000000b0: 800c 193d 1e12 113d 98c1 193e fcc5 f63c
000000c0: 4dfa 493d 3bb7 783d 9c0f ffbd 037c 003d
000000d0: b8ae 403d 56b8 2a3e 999a 453e 9229 ee3d
000000e0: 182e 433e aab4 fe3c 246d e0bd f906 453d
000000f0: bd73 583c 8733 713e 86a0 08be 5c4c 433e
00000100: 0e40 1c3e 8724 cfbd e956 cbbb 6998 d93c
00000110: dd53 12be c4b2 19be 2b64 3c3e 3392 7e3e
00000120: f5e8 6a3e 16f8 013e e5b8 29be 0e71 703d
00000130: 69f5 cabd ee5b 2b3d 5003 e5bd f385 d2bd
00000140: 497f 0c3d 81a2 1dbe 00f7 383e dea6 2f3d
00000150: c1a2 e8bd 27af 6d3e 061b 1b3e 7988 d4bd
00000160: 6bbe 6c3e 994b b4bd bd04 41be 0fdd 14be
00000170: 492d 313e 9e5a 143e d8b0 293c 64bc 9abb
00000180: adc2 dabb 3574 563e 9369 713e a197 04bc
0.19072707 0.17458838 0.14658642 0.23998594 -0.15312563 -0.062399417 -0.0077282754 0.25437433
0.17166492 0.01748417 -0.16446508 0.0481664 0.0059021628 0.06995131 0.051754132 0.07779378
0.20621206 0.1594581 0.19971702 0.19934046 0.091858655 0.056354832 -0.041483194 0.18086673
-0.058083832 0.022315454 -0.059743084 -0.07788069 0.15854569 0.17480235 0.14025313 -0.07637965
0.14871077 0.11350103 0.055119034 -0.14843649 0.12712777 0.08511424 0.20740372 -0.12728922
0.1444827 0.22656502 0.0029363798 0.24366343 0.037365437 0.03541767 0.15015256 0.030123703
0.04931097 0.060721617 -0.12454149 0.031368267 0.047041625 0.16671881 0.19297256 0.11629023
0.19060552 0.031092007 -0.10958317 0.048102353 0.013211188 0.23554812 -0.13342485 0.19072098
0.1525881 -0.10114389 -0.006205429 0.026561933 -0.14289804 -0.150096 0.18397586 0.24860458
0.22940429 0.12692294 -0.16574438 0.058701567 -0.099100895 0.041835718 -0.111822724 -0.10279455
0.034301076 -0.15394022 0.18062973 0.042883746 -0.11359168 0.23211347 0.15147027 -0.103775926
0.23119514 -0.088034816 -0.18849464 -0.14537452 0.17302431 0.14487693 0.010357104 -0.004722165
-0.006676039 0.20942767 0.2357543 -0.008092792

fc2.weight f4 [6, 100]
00000000: 7488 fa3d 981b 353e 05b3 f13d 248b 413e
00000010: 8ba2 7f3c 64af 543d 32c7 553e 5f6b 1f3e
00000020: 0b02 633e e53c 3c3e 5df8 203d a9c2 3c3e
00000030: 36f8 f4bb c874 1a3e ef7b 643c f630 5b3e
00000040: 3f84 603e 4f91 553e f2f3 2e3e b9e1 403e
00000050: 5309 e63d a1b2 5d3e d8fa 103c 4df3 293e
00000060: b48e e5bc d8e8 243e 4b9c 563c 305e 6d3d
00000070: ee26 453e 32b8 5a3e d881 253e 5323 923d
00000080: 6215 233e 3b2f 383e 62fa 543c 323b 4b3c
00000090: 95de 223e 6a2a 153e f460 503e bfec 9d3d
000000a0: cadd 013e 9e06 2a3e 855b 373e ba85 623e
000000b0: 747b 063e ea60 933d bea7 363e eaa4 013e
000000c0: c8d4 173e f0ca 453e 2976 b3bc 3e9f fe3c
000000d0: 991d 333d 3910 0d3e f3c5 ef3d d3ab 393e
000000e0: f1fe ba3d 551f 47bc cdd5 5a3d fcdd 6ebb
000000f0: 3d94 183c 1d52 5b3e fd5d 0e3d 44a0 4b3e
00000100: 1904 4e3e 01b4 cc3c e967 553e 708d c6bb
00000110: b538 e9bc 4fe5 623d 0b03 283e 3284 383e
00000120: a016 4b3e 2703 5e3e 39f2 553d 3935 3f3e
00000130: 49ef 9e3b 9ead 503d 40ff d5bb d659 713d
00000140: ae87 403e 693b 4d3d 6478 323e 6402 5b3e
00000150: d049 0dbc 60df 463e 95c1 693e 6081 f93c
00000160: 1061 353e 5055 80bc b735 f3bc 8810 3f3c
00000170: 314b 503e 7390 4e3e 7c75 e93d b326 fa3d
00000180: 9ca2 223c 4c2f 4a3e 5941 443e 69d8 5c3e
00000190: f7e9 92bd 80cf 44be ecf3 28be 6ff7 44be
000001a0: 2d0a b9bd c967 4dbc 4d77 24be 435d 0cbe
000001b0: b554 02be 5141 4abe a063 903c 6780 0bbe
000001c0: 65ba f2bd 9e96 4cbe 86d5 96bd 3234 40be
000001d0: 74bf 32be 0ab2 c0bd 763a 2fbe 0b54 0fbe
000001e0: c833 7fbd 18f0 b1bd 87cd f6bd fe8e 64be
000001f0: ad07 12be 680a aabd d6a6 dabd fa8c b4bc
00000200: 9715 1ebe 0a72 6bbd 08a5 e3bd 2216 dfbc
00000210: 808f 07bd 8f71 16be 750c ae3c 2f8c 2dbe
00000220: 2c72 f8bd 3603 1dbe 8c83 64be d077 993c
00000230: 6a90 2fbe a6f5 5abe de70 0abe 65f6 f1bd
00000240: 2234 fbbd cb28 28be 8529 c7bd e3dd 46be
00000250: 17cc 22be 5da3 8abd 0fea 15be 981f bebd
00000260: e889 28bd 0867 9abd f7fa 5dbe a3a8 20be
00000270: e0d5 45be dd8b 04be 7d71 433b 0d54 1cbe
00000280: a686 e4bd e4b6 43bd 1704 9bbc 9002 1ebd
00000290: 5d10 81bd 9a01 05bd b4bd 61be 571e 24be
000002a0: f1c6 0ebe 7857 7abd 38cd f2bd c1a2 cabc
000002b0: cd71 52be a63e dcbd a1ab 3bbc 5933 14be
000002c0: f9d7 b7bc ea09 fabd 86f4 95bc a548 e6bd
000002d0: e806 babd 90ed 683c 3b63 36be 372e b6bd
000002e0: 1bfc 03be 1995 93bd 415e c4bd 9453 15bd
000002f0: 97b7 12be a2d1 77bd e9c7 54bd 9454 cdbd
00000300: 88e3 96bd fc00 0dbe 972c 5bbe a318 e7bd
00000310: 055b cebd 5afa 2bbd d440 09be 284c a8bd
00000320: c7b2 29be 8583 98bd ec3a 2bbe 875a aabd
00000330: 3543 c7bd 846e 22be 85f1 edbd ddfd 46be
00000340: 4164 37bd c0ce 47be d977 143d 9cc1 70bd
00000350: ceed 39bd 09f3 39be 5790 adbd af1b 09be
00000360: b0aa 02be e9e5 debd d4b6 28be 9613 dcbc
00000370: 1f1d 0dbe 451a eabd c5a8 16be 1fbe 21be
00000380: bea7 8cbc 01c9 6abd a9a6 02ba c678 a2bd
00000390: dccd acbd 4faf 26be eb76 58be 8275 e2bd
000003a0: 8630 58be 448e 06bd 14a9 98bd 0fa8 cdbd
000003b0: 7468 42be 9e06 9dbd 1b99 b5bd bf91 0abd
000003c0: 7c67 95bd a373 b8bd a96a 96bd 1773 0abe
000003d0: b151 57be 50e8 78bc 77d4 16be 8830 69be
000003e0: 5fbd 35be 79fb 43bd 6dbb 34bd 74b5 eabc
000003f0: f7a5 14be 2b8e 0abe 45cd 87bd 1249 e1bd
0.122330576 0.17686307 0.118017234 0.18900734 0.015602718 0.051925078 0.20876768 0.15568303
0.22168748 0.18382604 0.039299358 0.18433632 -0.007475878 0.15083611 0.013945564 0.21405396
0.21925448 0.20856212 0.17085245 0.18836106 0.11232247 0.21650173 0.008848868 0.16596718
-0.028022148 0.16104448 0.013098787 0.057951152 0.19253132 0.21359327 0.16162813 0.07135644
0.15926126 0.17986767 0.012999149 0.01240425 0.15905221 0.14566961 0.20349485 0.07711171
0.12682262 0.16604087 0.17906006 0.22121325 0.13133031 0.07196219 0.17837426 0.12660566
0.14827263 0.19315696 -0.02190693 0.031081792 0.0437294 0.1377572 0.11707678 0.18131952
0.091306575 -0.012153466 0.053426553 -0.003644823 0.0093126865 0.21418042 0.034757603 0.19885355
0.2011875 0.024988176 0.2084042 -0.006059341 -0.028469423 0.055394467 0.16407411 0.18019179
0.1983285 0.2168089 0.052232955 0.18672647 0.0048503024 0.050946824 -0.0065306723 0.058923565
0.18801758 0.050105486 0.17428738 0.2138763 -0.008623555 0.19421148 0.22827752 0.030457199
0.17712808 -0.01566568 -0.0296887 0.011661656 0.20341183 0.2017229 0.113993615 0.122144125
0.009926464 0.19744605 0.19165553 0.21566929 -0.071735315 -0.1921978 -0.16499299 -0.19235013
-0.09035144 -0.012536951 -0.16061135 -0.13707452 -0.12727626 -0.19751479 0.01762563 -0.136232
-0.11851958 -0.19979331 -0.07364945 -0.18769911 -0.17455846 -0.09408958 -0.17112145 -0.13996904
-0.06230524 -0.086883724 -0.1205092 -0.22320172 -0.1426074 -0.08302766 -0.10676353 -0.02203988
-0.15437923 -0.057481803 -0.111154616 -0.027232233 -0.033095837 -0.14691757 0.021246174 -0.16948007
-0.121311516 -0.15333256 -0.22315806 0.018733889 -0.17144933 -0.2138277 -0.13519618 -0.11814574
-0.12265803 -0.16421811 -0.09724716 -0.1942058 -0.15898167 -0.0676944 -0.14640068 -0.0928337
-0.041147143 -0.07539183 -0.21677767 -0.1568933 -0.19319868 -0.12943979 0.0029822283 -0.15266438
-0.11158495 -0.04778184 -0.018922849 -0.038576663 -0.06301949 -0.03247223 -0.22045022 -0.16027199
-0.13943078 -0.061118573 -0.118555486 -0.02473581 -0.20551224 -0.10754137 -0.011454494 -0.14472713
-0.022441851 -0.12208922 -0.018305074 -0.112443246 -0.090833485 0.014216796 -0.17811291 -0.088955335
-0.1288914 -0.072061725 -0.0958829 -0.03645666 -0.14327846 -0.060502656 -0.05194846 -0.100258976
-0.07367617 -0.13769907 -0.21403728 -0.11283996 -0.10075954 -0.0419868 -0.13403636 -0.08217651
-0.16572104 -0.0744696 -0.16721696 -0.08318048 -0.097296156 -0.15862471 -0.11618332 -0.19432779
-0.044773344 -0.19512463 0.036247108 -0.05877839 -0.045392804 -0.18159117 -0.08474796 -0.13389467
-0.12760425 -0.10883696 -0.16475993 -0.026864808 -0.1378064 -0.11430792 -0.14712818 -0.15795182
-0.01716983 -0.0573206 -0.0004983941 -0.07933192 -0.08437702 -0.16277812 -0.21139114 -0.11057569
-0.2111226 -0.03285052 -0.07454124 -0.1004182 -0.18985158 -0.07667278 -0.08867093 -0.0338304
-0.07295129 -0.09006431 -0.073445626 -0.13520466 -0.21027257 -0.015192106 -0.14729486 -0.2277242
-0.1774802 -0.047847245 -0.044124056 -0.028650977 -0.14516436 -0.13530795 -0.06630949 -0.11000265

fc2.bias f4 [6]
00000000: 1f23 573e 43c5 99bd a3e1 c2bd 7839 7cbd
00000010: c9d0 3dbe c9b5 56be
0.21009491 -0.07508328 -0.09515693 -0.061578244 -0.18536676 -0.20967783
