Assets/Models/NNBaseline1/ActionClassifier.onnx (onnx, 34084 bytes, 4 tensors)

fc1.weight f4 [100, 51]
00000000: cbb8 0c3e 0c11 24be 5bd0 2dbe ebbc e6bc
00000010: b32d fabd a4d4 1e3d ea40 333c f531 9dbd
00000020: 25ed 14bd e1ba 85bd a3c2 fbbd 337a 0ebe
00000030: 5049 0dbe 4a08 9a3d 22f1 2cbe 1693 37bd
00000040: f053 55bb 9694 15be 29f4 d8bd f0f0 95bd
00000050: fa58 8a3d 0e6c 16be b794 97bd 3221 32be
00000060: c0c7 493e 1135 e9bc e598 303d 907f cf3c
00000070: f728 fdbd 2d3f 2ebd 737b cfbd c36e 60bd
00000080: 8291 7dbd dd9b 02be 0602 39be fe4d ecbd
00000090: 83c5 e1bc 625d 993c ee67 a23c 251c c53c
000000a0: 9cde 9bbd 43e4 ed3c 9a0e 923d 5a38 533d
000000b0: 9a68 0cbe 9f3b 79bd 906b 41be 5b64 83bd
000000c0: 7064 0dbe fc61 a23c 56ba 96bd 6297 9b3e
000000d0: 0556 46be 1f3f cebc 188f 1abd bee2 0d3e
000000e0: 959a 623d a250 debd 87e3 7a3d 67dd 41be
000000f0: 1211 36bc 3a7b c6bd 1951 b5bd cf30 6a3e
00000100: d880 63bc 1880 e8bd d55f 0c3d 97ad 03be
00000110: c9af 883d 65e7 0fbe 338e 823b 704f a93d
00000120: d195 bcbc 57d2 12be 9cb4 7cbd 49bf ee3c
00000130: 042c 25bd 7325 45be e68a 76bc cbe9 cb3c
00000140: a25b ed3c da02 25be 6d1a 8fbc 9af8 31be
00000150: 308b 49bc dc88 25bd 2738 083d c111 34be
00000160: b03d cebd 1355 2fbe 8c49 4e3d 7152 1dbe
00000170: d1dd 2bbe ffa0 40bd b40e eebd 9f67 233e
00000180: 5621 f0bd 53a3 3dbe 49e3 0fbe abab 1ebe
00000190: a7cc 8c3d f4b8 4bbe b258 fabd 6762 953d
000001a0: c5f2 553c 9817 1bbc 9703 09bf f20e 1d3d
000001b0: fcf4 0b3e 3f39 3e3e 8545 12bd 0dc8 623e
000001c0: 02f9 563d 4ca1 0c3e e240 d0bd 1269 923e
000001d0: 938f 9a3d dbd5 823d a5c9 a5be 1172 19bd
000001e0: edc1 bf3c 9a3c c13c b356 5dbe 239c 87bd
000001f0: 57e5 ab3c 2aa9 0a3e d71a 0abf d09b 523e
00000200: 11a4 443d 77ce 12bc fc67 b1be bf7b 9e3e
00000210: c43e f3bd 53ed ca3c 337d 753d 846e c33e
00000220: 9f81 afbc 906e c9bd af54 14bd e448 c93e
00000230: 8a14 18be 9291 9dbd 583a 6abe b6ee a53e
00000240: 559c 54be ab16 4dbe e99b 7abd b242 073e
00000250: b74a ce3c ab86 a83c f035 803e 549c 033e
00000260: 7afc 323d eaca 053e b2d6 3abe e053 e0bd
00000270: 488c 2d3c 2c8c 293e 6aa7 cdbd 3ef2 8d3d
00000280: 2854 c2bd 328e 3abc 42e1 d73c aff5 6bbd
00000290: 6d7c adbd 83b2 1b3f 42a3 afbd 9479 223d
000002a0: 212f 93bd 5519 1f3e f2a5 edbc 48c5 8fbd
000002b0: 2d9e 0dbe 436e a73e 2e8e 23be fcf7 93bd
000002c0: ba7a b9bd bbaa c83d 2b5f 4dbe 8a7d cc3c
000002d0: 0fba 39bd a304 55be 42a6 33be 56e6 bdbc
000002e0: 1914 ccbd bffb b2bd 3619 14be 3f48 3bbe
000002f0: 0d6f 8e3d 55f5 2a3c 8b71 bfbd 7ce4 f33c
00000300: 70f4 e8bd 481e 103b e223 263e 80cb 833d
00000310: 98b3 873d fe41 653e 4892 82bc 28ce 16be
00000320: 6b88 07be 3b54 71bd 9d75 9d3b 5234 bcbb
00000330: 0eb8 963f b989 ccbe 0a60 3f3b 944c a73c
00000340: 7518 e03e 7f01 9a3e 2ba2 383d 1dd2 163f
00000350: 3b6e 163e 2ccc bdbe 7dd3 71be 7046 7a3e
00000360: 7efd 4dbe 1106 503c 9103 34bd b85e 653d
00000370: dc2a 17bf ef56 6f3f d615 313e 2c0b 10be
00000380: 09e8 473f edcc 343f 8769 3d3c 9dcf bfbe
00000390: 576c a03e 0bcf 573d 5fb2 ab3d f6ab 983d
000003a0: 0e35 ce3e ab23 9bbd e749 46be 883b be3d
000003b0: d70b 89be 8c7f 38be c236 cd3d 362c 343d
000003c0: a8f7 60be 463a c6be 6706 dd3d 3cd0 4f3e
000003d0: 0af6 2bbf 5066 37be 4af2 3f3e eb07 ac3d
000003e0: 13b5 05bf f6b4 673d 3fa1 8bbd c39e c1bd
000003f0: 027b 67bf f275 263d f24a 7e3d 845c 37be
0.13742368 -0.16022128 -0.16974013 -0.028166255 -0.12215748 0.03877701 0.01094077 -0.07675544
-0.03635897 -0.06529785 -0.122929834 -0.13913803 -0.13797498 0.07521112 -0.1688886 -0.044818006
-0.0032551251 -0.14607462 -0.10593445 -0.07321346 0.06755252 -0.14689657 -0.07401412 -0.17395476
0.19705105 -0.028467687 0.04311456 0.025329381 -0.12361329 -0.042540718 -0.10130968 -0.05479313
-0.061906345 -0.1275477 -0.18067178 -0.11538313 -0.027560001 0.018721286 0.019824948 0.024061272
-0.07610819 0.029039508 0.07131691 0.051567413 -0.13711777 -0.060847875 -0.18888688 -0.06415626
-0.13807845 0.019822113 -0.073597595 0.30388933 -0.19368751 -0.025176583 -0.03773412 0.13856027
0.055323202 -0.10855223 0.061252143 -0.18932115 -0.011112468 -0.09691472 -0.08853359 0.22870182
-0.013885699 -0.11352557 0.03427108 -0.12859188 0.06674153 -0.14053114 0.0039842366 0.082671046
-0.023020657 -0.14338051 -0.06169568 0.029143946 -0.04032518 -0.19252567 -0.015047764 0.024891755
0.028974358 -0.16114369 -0.017468655 -0.1737999 -0.012301251 -0.040413722 0.033256676 -0.17584898
-0.1007036 -0.17122297 0.05036311 -0.1536348 -0.16783835 -0.047028538 -0.11623898 0.15957497
-0.11725108 -0.18519334 -0.14051546 -0.15495174 0.06874972 -0.19894773 -0.122239485 0.072941594
0.013058369 -0.009466074 -0.535211 0.03834433 0.13667673 0.18576525 -0.03571083 0.22146626
0.052483566 0.13733405 -0.101686254 0.28595787 0.07546916 0.06388446 -0.32380405 -0.037462298
0.0234079 0.023588467 -0.21615104 -0.066215776 0.020983381 0.13541093 -0.53947204 0.2056725
0.04800803 -0.008960358 -0.34649646 0.30953786 -0.11877206 0.024771368 0.059933852 0.38170254
-0.021424113 -0.09835541 -0.036213573 0.39313424 -0.14851585 -0.07693781 -0.22873819 0.32408684
-0.20762761 -0.20028178 -0.061183844 0.13209036 0.025182111 0.020572027 0.2504115 0.12852603
0.04369781 0.13065687 -0.18245962 -0.10953498 0.010592528 0.16557378 -0.10041697 0.0693097
-0.09488708 -0.011386441 0.026352528 -0.05760735 -0.08470998 0.6081926 -0.08576061 0.039666727
-0.071867235 0.15537007 -0.029009793 -0.0702005 -0.1382987 0.3270131 -0.15972206 -0.07225034
-0.09056611 0.09798189 -0.20055835 0.024962205 -0.045343455 -0.2080255 -0.17543891 -0.023181122
-0.09964771 -0.08739423 -0.14462742 -0.18289278 0.06954775 0.010434468 -0.093478285 0.029772036
-0.11374748 0.0021990705 0.16224626 0.06435299 0.06626052 0.22388455 -0.015938893 -0.1472708
-0.13235633 -0.05891822 0.0048052804 -0.0057435418 1.1774919 -0.39948824 0.002920153 0.020422257
0.4376866 0.30079266 0.04507653 0.5891436 0.14690487 -0.37069833 -0.23615833 0.24440932
-0.20116231 0.012696759 -0.043948714 0.055998534 -0.59049773 0.93492025 0.17293486 -0.14066762
0.7808843 0.7062519 0.011560804 -0.37463084 0.31332657 0.052687686 0.08383631 0.07454674
0.40274853 -0.075751625 -0.19364129 0.092886984 -0.26766846 -0.18017405 0.1002021 0.043987475
-0.21969473 -0.38716334 0.10792237 0.20294279 -0.671723 -0.17910123 0.1874477 0.08399948
-0.5222942 0.056569062 -0.068178646 -0.094541095 -0.9042207 0.040639825 0.062083192 -0.17906386

fc1.bias f4 [100]
00000000: afb0 0ebe b2c3 a9bd a2af 0cbe 3abb 35be
00000010: c196 c2be 1fac 493e a753 493d 213f 13be
00000020: 3fb0 96be a438 11be 40b3 f9bd 5034 093d
00000030: c38f 993c 9536 923e abf8 a03d 5bbb e8bc
00000040: eeb9 6dbe 6626 f53d 7871 92bd b528 1fbe
00000050: cf89 e9bc 8ff6 563e d61e db3d a0c8 07bc
00000060: 8092 f2bd e3e8 11be 6fbf c6bd ae54 56bd
00000070: c831 1ebe abe0 46bd 443f e13d b7d2 27bc
00000080: f748 2d3e e6ae cabc 6211 5b3e 4a26 113e
00000090: 1f53 21be 98da 42be 56cb 123d 00a7 8a3c
000000a0: 8440 73bd 6705 26be adfa af3d 9e20 52be
000000b0: f908 823e c531 8fbe a2f0 5c3d 76bc dcbd
000000c0: cb1b 963d b635 c6bd 82ac 483e 2c5e b93d
000000d0: 2346 1f3d 77a3 493d 7934 a8bc d7e7 4fbc
000000e0: 8f1f 0abe 9036 3e3d e6c2 e9bd 6a63 4fbe
000000f0: 50b0 10be ec2a 19bd 4ab5 77bd d4c9 4a3e
00000100: 6871 07bb 01f4 853e 69e2 0fbd 88e1 8a3b
00000110: ec52 a63d 7447 703d da47 19be c2a4 323d
00000120: 4750 0d3e 8e4d b23e bb9c d4bd b4c3 1bbe
00000130: b9b9 893d 433d b2bc ed35 39be a436 85bc
00000140: 6509 82be ea5f 373e 4618 fcbc 47ad adbd
00000150: f077 08be 985d bf3d 86ac 6bbc ae36 933d
00000160: 0be3 cd3d 15a8 3abd 0c38 e63d 8771 fbbd
00000170: 85e7 aa3e 6a54 bb3d 7491 f9bd 6343 b33e
00000180: 1f63 6d3d 3cb0 15be 83b2 95bd 96a6 acbd
-0.13934587 -0.08289279 -0.13738874 -0.17747203 -0.3800564 0.19694565 0.049152043 -0.1437955
-0.2943134 -0.14181763 -0.12192392 0.033497155 0.018745309 0.28557268 0.0785993 -0.02840965
-0.23215458 0.119702145 -0.07150549 -0.15542872 -0.028508095 0.20992492 0.10699241 -0.008287579
-0.11844349 -0.14248995 -0.09704482 -0.05232685 -0.15448678 -0.048554104 0.10998395 -0.010243109
0.16922365 -0.024741601 0.2139335 0.14174762 -0.15754364 -0.190287 0.035838448 0.016925335
-0.0593877 -0.16212998 0.085927345 -0.20520255 0.2539747 -0.2796766 0.053940423 -0.107781336
0.0732952 -0.09678213 0.19597057 0.09051165 0.038885247 0.049228158 -0.020532833 -0.012689552
-0.13488601 0.046438754 -0.11414127 -0.20252767 -0.14129758 -0.03739445 -0.060475625 0.19803554
-0.002066696 0.26162723 -0.03512803 0.004238311 0.08121285 0.058661893 -0.14968815 0.043614157
0.13800155 0.34824795 -0.103814565 -0.15211374 0.06724877 -0.021757727 -0.18086977 -0.016261406
-0.25397792 0.17907682 -0.030773293 -0.08480316 -0.13327003 0.093440235 -0.0143843945 0.07188164
0.10053071 -0.04557045 0.11241159 -0.12277513 0.3337976 0.0914696 -0.12185946 0.3501235
0.057955857 -0.1461801 -0.07309439 -0.08430211

fc2.weight f4 [6, 100]
00000000: e0de dd3d 513c dc3c 82f6 473a 2581 353d
00000010: 3d79 b63f 7b57 58bc 4adc 3dbe 9867 dabd
00000020: b30d d73b d0ac bbbe 3124 27be 9db2 1bbe
00000030: 336c efbd fc21 113e dea6 2fbd bd20 82bd
00000040: 9527 1abc fd02 d73e 6b58 7e3e 354a f8be
00000050: f895 64be 7ebd 4fbe 25c2 9bbd acdf c43d
00000060: 0d0d 1abd d92c 8dbc b062 3e3d 7fb0 753e
00000070: ecb8 163e 97aa f4bc 52d0 8bbc 6fc0 933d
00000080: 1d9d 02be 110e b4bd d76a 2ebe b7ce ab3e
00000090: 0001 4ebd a839 13bc a672 7f3f c503 21be
000000a0: e84f 743c e4fa 423e bf25 bfbd 3c40 94be
000000b0: b6f8 e1bd b7f3 c23e 6018 4c3d 3be6 a9bc
000000c0: 3d62 a93e 078b 063f 83f6 bbbd 7879 863d
000000d0: 4252 49be 38fb b5bd 4157 2abe 4f00 203d
000000e0: 8d67 b8bd ce2e 123d 833a 29bd 73d6 bb3d
000000f0: f99b 99bd cfe3 28bd 9fef e2ba c971 6c3d
00000100: 278d 4fbe 9259 f8bd dd93 203e e016 94bd
00000110: f34e 72be 5a76 4dbc a320 843c ad54 46bd
00000120: 48bd ba3d a945 503f d5dd bbbe 9c48 f5bb
00000130: 8f07 0f3d 1883 b9bd 27b5 55bd 3ff8 0abe
00000140: 6cfa 7c3e 0a30 06bc 6b1b e6bd 3654 3fbd
00000150: f2b2 17bd 30b6 70be 6a5a 24bd a697 50be
00000160: 1d31 9ebd 3638 e1bb 03d4 0fbe ab49 20bc
00000170: b344 d83d 86d2 a9bd f6b3 00be b5d8 1e3d
00000180: 4004 81be 3cec 6bbf a966 373f 632f e1bd
00000190: 9517 27bd 0cb1 04be 733f 5fbd b6c1 aabd
000001a0: fbcb 7cbd c63c 53be 6863 c7bd b96f 09be
000001b0: 7c2c 543b a824 bbbd 3452 5fbd de0a 40be
000001c0: 2462 47be 8590 05be 4a17 48be e2a6 0bbe
000001d0: 7157 163c cc14 a1bd 32a8 87be e1e6 02bd
000001e0: 82b5 debd e8e9 57be dbef 59be a6a3 5abe
000001f0: 07f4 c1bd 9d82 1dbc 9b39 1ebe 75b1 a3be
00000200: c937 65bd d9aa 24be ba8c 00be bef6 e4bd
00000210: 7191 19be ae8f 10bd 6549 31be d6c9 33bf
00000220: 8877 db3b 23c8 d3bb 271c 00be 8879 1fbe
00000230: bec6 61be 859d 81bd 17c7 6cbe 3479 1ebe
00000240: a2a0 2bbe d705 55be 7166 c1bc 72a5 7fbc
00000250: 68dd a9bd b917 bbbd 4c77 c7bd 523c 7fbe
00000260: b7d3 23bd 4f58 05be 40fc 02be 3a53 50bb
00000270: d500 dbbc e383 09bf 3674 91bc 0d02 a0be
00000280: ae4b 763c aeeb c5ba 5590 69be 095f b9bd
00000290: 6043 33be bc99 63be 361b b8be 81c6 cb3b
000002a0: 6a66 68be 62d4 3bbe b441 09be 9610 17bd
000002b0: 20c5 19bf d662 0fbd 4862 fdbe b5ea 92bd
000002c0: f1e4 893c b74f 22be 42fb 6abd 92e0 0abe
000002d0: 9b30 74bd eae4 86be 29a2 eb3c e2c1 a23b
000002e0: 720e 82bd ad9c 14be 25c7 9f3c 367f a1bd
000002f0: fcdd 91bd 4472 4abc b364 65bd 2aa8 70bd
00000300: 0efc b7bd ebe2 46be 409b 69bd 467e 7abe
00000310: 5be7 cbbc 2b6e edbd 542e 8cbe cf84 9ebd
00000320: e736 10be 94a6 10bd b821 aebd bd5c f93c
00000330: 58b9 9dbf 5402 0f3e 1be8 e63e 83f6 bc3d
00000340: 157d 05bc 3052 49be 36bf a6bd 4695 fcbc
00000350: 446c 9fbd 9cb1 7e3e 0b67 123e 2c15 e23d
00000360: 4265 dabd 9d39 493f 66bf 84be 871e 49bc
00000370: 9618 893d 2274 9d3e dd5d eb3d e888 cfbb
00000380: 098c 7ebe 154c 003e 5e73 453d c287 88be
00000390: b449 febd 2281 e4bc 40aa dc3c dce3 483c
000003a0: 8720 ec3d 8da6 ee3d a45e fc3d ba1b 9c3c
000003b0: 4b08 3b3c 95ed bc3d c490 27be 0c8e f93e
000003c0: 6b78 53bd 1493 29be ea6d 0f3d 7610 46bc
000003d0: 321b 303e fc58 5cbe ed2d 8cbc 4ae2 203c
000003e0: e9d1 bd3c a1f8 ecbe 9b79 c53e 8f56 dc3c
000003f0: 8e90 1b3e 9217 023f 2d1a 3a3d 45e7 0fbd
0.10833526 0.02688423 0.000762798 0.044312615 1.4255749 -0.013204451 -0.18541065 -0.1066429
0.0065629124 -0.36655283 -0.163224 -0.15204854 -0.11690559 0.1417312 -0.042883746 -0.063539006
-0.009408851 0.41994467 0.24838416 -0.48494115 -0.22322834 -0.2028713 -0.076053895 0.096129745
-0.037610102 -0.0172333 0.046480834 0.23993109 0.1471898 -0.0298665 -0.017067108 0.07214438
-0.12755246 -0.087917455 -0.17032944 0.33556148 -0.050293922 -0.008985914 0.99784315 -0.15724094
0.014911629 0.1904102 -0.09333371 -0.28955257 -0.11033766 0.38076565 0.049827933 -0.020739665
0.33082762 0.5255589 -0.09177878 0.06566137 -0.19660285 -0.08885807 -0.16634847 0.039062794
-0.09004126 0.035689168 -0.041315567 0.09171762 -0.075004525 -0.04123288 -0.0017313844 0.0577257
-0.20268689 -0.12126459 0.15681405 -0.072309256 -0.23662929 -0.012540424 0.016128844 -0.048420597
0.09118134 0.8135629 -0.36692682 -0.0074854624 0.034919318 -0.09058207 -0.052174713 -0.13571261
0.24704903 -0.008190164 -0.11235698 -0.04671117 -0.03703589 -0.23506999 -0.040125288 -0.2037035
-0.07724211 -0.006873156 -0.1404572 -0.009783189 0.10559978 -0.08292107 -0.1256865 0.038780887
-0.25198555 -0.9215734 0.7164102 -0.109953664 -0.040793974 -0.12958163 -0.05450387 -0.08337729
-0.06171797 -0.20628652 -0.09735757 -0.13421525 0.0032375148 -0.09137851 -0.054521754 -0.18754146
-0.19471031 -0.13043411 -0.19540134 -0.1363788 0.009176121 -0.07865295 -0.2649551 -0.031958465
-0.108744636 -0.21085322 -0.21282904 -0.2135149 -0.09470373 -0.00961366 -0.15451662 -0.31971326
-0.055961404 -0.16080798 -0.12553683 -0.11179875 -0.14996888 -0.035293274 -0.17313154 -0.7022985
0.006697599 -0.006463067 -0.1251074 -0.15573704 -0.2204847 -0.063288726 -0.23122822 -0.15475923
-0.16760495 -0.20803009 -0.023608418 -0.01560341 -0.08294183 -0.09135384 -0.09739551 -0.24925354
-0.03999683 -0.13021968 -0.12791538 -0.0031787888 -0.026733795 -0.5371687 -0.017755609 -0.31251565
0.015032692 -0.0015100145 -0.22808965 -0.0905133 -0.1750617 -0.22226614 -0.3595826 0.006218732
-0.22695318 -0.18342736 -0.1340397 -0.036881052 -0.60066414 -0.035006367 -0.49489045 -0.07173673
0.0168328 -0.15850721 -0.057368524 -0.1356223 -0.059616666 -0.26346523 0.028763847 0.0049669603
-0.063504115 -0.14512892 0.01950414 -0.07885592 -0.07122418 -0.012356345 -0.056004237 -0.058754124
-0.089836225 -0.194225 -0.057032824 -0.24462232 -0.024890592 -0.115932785 -0.27379096 -0.07740175
-0.14083444 -0.03531511 -0.08502525 0.030439729 -1.2322187 0.13965732 0.45098957 0.09226706
-0.008147498 -0.19660258 -0.08141939 -0.030832898 -0.07784322 0.2487244 0.1429712 0.110391945
-0.10663845 0.78603536 -0.25927275 -0.012275345 0.066941425 0.30752665 0.114925124 -0.006333459
-0.24858107 0.12529023 0.048205726 -0.26666075 -0.124164015 -0.027893607 0.02693665 0.012261357
0.115296416 0.11652861 0.12322739 0.01905619 0.011415551 0.09225003 -0.16363817 0.48741186
-0.05162851 -0.16560012 0.03501693 -0.0120888855 0.17197874 -0.2151832 -0.017111743 0.0098195765
0.023171382 -0.4628344 0.3856934 0.026896743 0.15191862 0.50817215 0.04543512 -0.035132665

fc2.bias f4 [6]
00000000: 70c5 13be 7e66 0ebe 1a15 303e 97bd e9bc
00000010: 84b1 dcbd cf7b 73bd
-0.14430785 -0.13906285 0.1719555 -0.028532786 -0.10776046 -0.059444245
