Assets/Models/NNBaseline1/C2MoveAction.onnx (onnx, 65578 bytes, 12 tensors)

fc1.weight f4 [100, 51]
00000000: b036 a734 c81c 2934 cd1b 00b6 7ee1 1eb6
00000010: f019 8734 9df4 4835 cd51 c835 cbf2 8335
00000020: 9a3d 6134 804f 6ab1 9db6 06b6 cd88 a6b6
00000030: e4ff 3735 9e2e 5a35 c8a5 1336 571a 4d35
00000040: da90 ab34 08c8 fa34 6d92 9235 5599 9e34
00000050: f8d6 7634 6631 5e35 52f4 8e35 0d64 3f35
00000060: f9b0 c934 1166 cc35 b009 c0b5 3087 1a34
00000070: 0a3d 4733 4e13 b7b5 4869 b0b5 1028 bfb5
00000080: ccbb 3a35 86d3 0334 a39b 04b5 7306 8436
00000090: 7c44 26b4 aae0 8fb6 450d 5f36 e516 6735
000000a0: 56c5 fd36 c846 9635 c918 5336 9874 9e35
000000b0: 4ed8 eb35 dd70 f234 874d c335 fb52 2f36
000000c0: c790 a335 aea8 a634 0ac9 d735 63db 16bc
000000d0: 3030 c83b 81ca a7be e651 59be 4657 3bba
000000e0: 8076 983b 1dc6 833e 0ba6 823e 58c0 9dbc
000000f0: c6bd a7bc a4c9 423e 5c06 243e 1f01 bfbc
00000100: a7b1 cd3b c98a 173e 25f3 9a3d 26e4 3fbc
00000110: df46 11bc f323 af3d 4665 393c 668c 91bb
00000120: e189 423d 2a08 7abd 05be c3bd 4bd6 b6bc
00000130: a379 25bd 5f64 103d 849a debc ceaa d1bc
00000140: bfd5 28bd 0574 fb3d bc27 b83c 7e27 0a3d
00000150: 7ea5 d0bd 3212 0abe 7d1a 67be b29d 85bc
00000160: 111d d7bd abd0 d5bc d46b 35bd 06a7 d1bc
00000170: 30b0 4abd 9589 45bd a61b 31be 1e03 23bd
00000180: 07cb 65bd 8aa3 d73d 42fb 613c bb10 0a3f
00000190: 151b 993d 4b79 b33d b87e 3a3d 79eb dfbc
000001a0: 00bb 8b3d e797 73bd 6242 3c3c 1587 f53c
000001b0: 431d 883d 7a73 49bd effd e1ba e727 c4bc
000001c0: dd36 61bb b7fd f5be faae f4bb 31a0 4f3c
000001d0: 3673 913d 883a e4bc 0760 a7bd 9198 c53d
000001e0: 6346 7c3d 3343 a23d 4893 513d 47cc 02bd
000001f0: 73ae 2d3e ea11 d53c 9fbf 523d 54e9 0e3d
00000200: 863b 093e 58d6 943e 5890 6a3d a2bf b23d
00000210: f252 233e d2b1 9a3e 8f51 49bc dce4 f2bd
00000220: f1ad 67be 3156 8d3e 2e80 24bb 0027 38bd
00000230: adf6 18bc 6b57 5b3b 272f da3c 5f98 c73d
00000240: cc92 813d cde4 3c3c ea32 1e3d abcb 593d
00000250: 6084 7c3d 103e ef3d 2826 873e f04c edbd
00000260: 3d6f 33bd 5c5a c7bb b975 313c 6f43 663d
00000270: 7101 a93d c826 bfba 3bab 023c 76e8 3e3d
00000280: 4aa8 6b3d ae5f 163c 8a84 183a ae72 ae3d
00000290: 8cf0 ae3d 9196 bdb9 cf45 1f3c 78e3 ad3c
000002a0: 5959 813c 3134 db3b 3ec3 103c 8ad1 2bbc
000002b0: 6f66 1b3c 396e 49bb 9b01 103d 8cb6 2e3c
000002c0: 99e6 e3bb 776c 02bc 359f 26bd 6a2c a33c
000002d0: 4deb 8c3c d0c2 20bc d203 20bd 7dc4 eb3b
000002e0: 74c6 043d 6d06 373c eeb8 bfbc 4e9d 483d
000002f0: 9b39 34bc b080 23bc 78e6 06bc e67d 853c
00000300: b059 41bb e1b7 66bb 6f57 77bc 9fdc 5abd
00000310: 4558 653b 4136 60bc 4bc6 78bc 9f44 53bb
00000320: fb2d 65bc df31 f53e 0717 f83c 5a55 d43b
00000330: 102c b839 b87e 8039 c0ed a5bb 914a 81bb
00000340: bdae d238 4618 7839 e913 513b 0be6 eb3a
00000350: e9a5 74ba e17e 85b8 7837 b1ba f959 b2b8
00000360: e50f 0537 219f 6ab9 ff07 ae3b f9ff 403a
00000370: c491 96b9 ae37 7a38 0ceb 3c3b e3f4 d33a
00000380: 7c12 1538 b807 abb9 37f0 9f3b 2ff3 393b
00000390: 407b 1eb7 1dc3 503a 3cf6 02ba 1bc1 a4ba
000003a0: dc63 96b9 8007 5e3a 790b 9f39 e9b3 87ba
000003b0: 3d67 263a 0c8b 333b 709d 4237 f2a6 84bb
000003c0: 468c a4b9 6ae2 2439 58e3 cc39 a3c9 0aba
000003d0: 5057 51b9 7e23 d9b9 7f54 213b 2dab 67ba
000003e0: 99ce c7b7 ea15 89b8 5875 f93a 82a3 a5b8
000003f0: 6952 d8bb 898c 29bb a03d 463b 8ee8 843c
3.1145964e-07 1.5749822e-07 -1.9089669e-06 -2.3675088e-06 2.5164582e-07 7.4861765e-07 1.4924968e-06 9.830923e-07
2.0977168e-07 -3.4096672e-09 -2.007385e-06 -4.963111e-06 6.854518e-07 8.1279165e-07 2.2001204e-06 7.640678e-07
3.1956625e-07 4.671167e-07 1.0920463e-06 2.9541357e-07 2.298874e-07 8.277333e-07 1.0650931e-06 7.129864e-07
3.7567932e-07 1.522889e-06 -1.4307934e-06 1.4391549e-07 4.6388813e-08 -1.3640181e-06 -1.3143663e-06 -1.4242269e-06
6.956368e-07 1.2277278e-07 -4.9400313e-07 3.9346573e-06 -1.5484869e-07 -4.2878864e-06 3.3237313e-06 8.608752e-07
7.5629605e-06 1.1196471e-06 3.1455877e-06 1.1805851e-06 1.7571817e-06 4.5158131e-07 1.4551196e-06 2.6125333e-06
1.2186582e-06 3.104264e-07 1.6077258e-06 -0.009207579 0.00610926 -0.32771686 -0.21222648 -0.00071464886
0.004652798 0.25737086 0.25517306 -0.019256756 -0.020476233 0.19022232 0.16018051 -0.023315964
0.0062772813 0.14799036 0.075659074 -0.01171211 -0.008866995 0.08551779 0.011315649 -0.0044417856
0.047494773 -0.061042942 -0.09557728 -0.02231898 -0.040399205 0.03525197 -0.027173288 -0.025594141
-0.04121947 0.12277988 0.022479884 0.03372907 -0.10187815 -0.13483503 -0.22568698 -0.016310547
-0.10503591 -0.026100477 -0.044292286 -0.025592338 -0.04948443 -0.04822691 -0.17295703 -0.039797895
-0.056101825 0.105292395 0.013792815 0.5393178 0.074758686 0.08763369 0.045531005 -0.027333962
0.06822777 -0.059471037 0.011490436 0.029971639 0.06646206 -0.049182393 -0.0017241816 -0.023944808
-0.0034364976 -0.48045132 -0.007467148 0.01267247 0.07102053 -0.027859941 -0.08172613 0.0964824
0.061590564 0.079229735 0.05116585 -0.031933095 0.16961078 0.026009519 0.051452275 0.034890488
0.13401613 0.2906978 0.057266563 0.08727957 0.1594961 0.3021379 -0.0122875115 -0.11860058
-0.22624947 0.2760482 -0.0025100815 -0.04495907 -0.009336156 0.0033468853 0.026633812 0.09745859
0.063268274 0.01152916 0.038622774 0.05317275 0.06164968 0.11681759 0.26396298 -0.1158694
-0.043807257 -0.0060837697 0.01083129 0.056216653 0.08252228 -0.0014583701 0.007975395 0.04660841
0.05753354 0.009178085 0.00058180897 0.08517967 0.085419744 -0.0003616107 0.0097212335 0.02122663
0.015789675 0.0066895713 0.008835612 -0.01048697 0.009484871 -0.0030735864 0.03515778 0.01066364
-0.0069549796 -0.00796043 -0.040679175 0.01991864 0.017202044 -0.009812072 -0.039066143 0.007195054
0.032415822 0.011170966 -0.023403611 0.048978142 -0.011000062 -0.009979412 -0.008233659 0.016295385
-0.002950292 -0.0035204815 -0.015096529 -0.053433057 0.003499524 -0.01368481 -0.0151839955 -0.0032236946
-0.013988013 0.4788961 0.030284418 0.0064799013 0.00035128044 0.00024508475 -0.0050637424 -0.0039456566
0.00010046128 0.00023660166 0.0031902737 0.0017997635 -0.0009332584 -6.365567e-05 -0.0013520559 -8.50446e-05
7.9311185e-06 -0.00022375259 0.005311012 0.00073623616 -0.00028718833 5.96565e-05 0.0028826622 0.0016171004
3.5541583e-05 -0.00032621413 0.0048809308 0.0028373708 -9.44623e-06 0.00079636445 -0.0004995798 -0.0012569757
-0.0002868463 0.00084697455 0.0003033539 -0.00103533 0.0006347781 0.002739611 1.1599957e-05 -0.0040482217
-0.0003138503 0.00015724605 0.00039079296 -0.00052943284 -0.0001996432 -0.0004141591 0.0024617014 -0.0008837458
-2.3818853e-05 -6.536751e-05 0.0019032164 -7.898269e-05 -0.006601621 -0.002587112 0.0030249134 0.016224172

fc1.bias f4 [100]
00000000: 3e09 1436 5d54 f43b f297 5339 f16f 90bc
00000010: f442 973a 94a2 b4bc f97f 123e 74a6 61bd
00000020: dacc af39 aa67 ce3b a919 8aaf a58a 6f3b
00000030: db86 143d fd03 ff3c f3e9 0e3e 5955 34bd
00000040: b750 bf3c 5cf5 7037 0ca0 cd3d e5cf 3bbd
00000050: d506 393d b19a cdbc a53f 233d 7d8d b7bc
00000060: 2b5f 8c3d 1c44 11bd 9651 8a3c 1882 4a3c
00000070: 41b8 543d 7370 0ebb 86c0 113a cfd9 b7bc
00000080: 0baf 713e 8305 0dbb 94f6 cc3d f9b5 a73d
00000090: 9d9a 8436 e325 aebd a710 7c3e 5f0e 4d3d
000000a0: 383d 78bd 52d6 5b3e 12b1 473e 8c0f 41bb
000000b0: f949 3a3c 03ff c23d d8b1 18bd 10d0 803e
000000c0: a358 9a3d 5ed1 35bc 61ff ee3d 67a2 96bc
000000d0: 0740 8b3e 865d cd3d 2a11 34bd d186 19bd
000000e0: 4739 0b3e ca47 1fbb fa5b c63b 3afb e3bb
000000f0: 86ac 22bd e70e fdbc 229c 333e f296 813e
00000100: d83e af3d ebb0 163c 3e81 37bd bd17 883e
00000110: 6663 d03d ccad b73d a9bf c73d 81ae 843d
00000120: d0ca 213d c522 70bd 04f3 62bd a550 6937
00000130: 3e4d 9f3d 29ee 333e 0bfe 8abc f493 d137
00000140: 7cd3 29bd 3542 b6ae 4139 f33d b3e7 09bc
00000150: d132 49bd 1451 723d e9b3 2a3c e70f d63d
00000160: 63b2 6f38 5941 c73d 66c2 2ebd 1bc3 ad3d
00000170: 07d0 e73d 1ab8 fc3c 1a96 ee3d 89d7 1fbd
00000180: fde7 6d37 5e45 fc3d ac38 eebc eb75 bd3d
2.2059098e-06 0.007456346 0.00020179132 -0.017631503 0.0011540339 -0.02205018 0.1430663 -0.055090383
0.00033531227 0.006298979 -2.5120286e-10 0.0036551144 0.03626142 0.031129831 0.13956432 -0.044026706
0.023353918 1.4362242e-05 0.10040292 -0.04585256 0.04517253 -0.025098177 0.039855618 -0.022406334
0.06854089 -0.035465345 0.016884606 0.012360118 0.05193353 -0.0021734505 0.0005559999 -0.022442726
0.2360193 -0.0021518178 0.100079685 0.081890054 3.951906e-06 -0.0850332 0.24615727 0.050062533
-0.060605258 0.21468475 0.1950114 -0.002945873 0.0113701755 0.09521296 -0.03727898 0.2515874
0.07536437 -0.01109728 0.116698034 -0.018387986 0.27197286 0.10027604 -0.04396168 -0.037482087
0.13596068 -0.0024304264 0.006053445 -0.006957439 -0.039715312 -0.030890895 0.17540029 0.25310475
0.08556908 0.009197454 -0.04480099 0.2658061 0.10175209 0.08968696 0.09753353 0.064785965
0.039500058 -0.05862691 -0.05540754 1.3906659e-05 0.07778405 0.1757132 -0.01696684 2.4983638e-05
-0.041461453 -8.2881625e-11 0.11876155 -0.008417058 -0.049120728 0.059159353 0.0104188705 0.10452252
5.7148176e-05 0.09729261 -0.04266586 0.08484479 0.11318975 0.030849505 0.11649723 -0.03902391
1.4180315e-05 0.12317918 -0.029079758 0.09251007

fc2_1.weight f4 [12, 100]
00000000: d6db b9b4 b737 c7bc 7c11 b0bc 5fd7 b7bc
00000010: 6b21 9db9 df7f 92bc 5f33 b9bc df8d 43bc
00000020: 7491 46b8 987d 29bc b8a7 c4ae 4496 57bc
00000030: d2de aebc fdd7 eabc d352 a7bc 9120 85bc
00000040: 5e32 babc 80ce d133 1092 88bc f969 50bc
00000050: 108a b3bb c996 dfbc 53b0 03bc 7689 26bc
00000060: 4733 89bc 0951 72bc 7ed4 19bd 896a 0cbc
00000070: 4957 afbc e7b1 e5bc 4644 9dbc 7f46 aabc
00000080: 5a94 a6bc cb76 56bc 2b19 89bc 69c0 a9bc
00000090: b0c9 1cb5 a20a 1ebd 371a b7bc 9e15 5ebc
000000a0: 8696 4cbc c144 e6bc ddf6 9fbc 17ba 25bb
000000b0: 6e64 eabc cf69 b6bc 96e5 87bc 8b97 bdbc
000000c0: b47a 89bc b847 59bc 5aa5 85bc 6e4d a5bc
000000d0: 4b09 04bd b7bb 88bc 7b2d 84bc 78d0 88bc
000000e0: 29da b7bc 770f 89bc 3570 4bbc 6661 24bd
000000f0: 9013 7cbc ee3c 89bc 7d9d c3bc 780d eebc
00000100: 4d87 0bbc f3c8 c5bc 7428 6ebc 6838 cebc
00000110: abc1 bfbc 699a 2ebc c18e a7bc 1ad5 0ebc
00000120: 23f7 77bc 4883 72bc 7a97 8bbc dac3 3fb6
00000130: 2f78 8cbc d5e4 efbc bae3 97bc fe57 4ab5
00000140: 3f5a 81bc a404 2aaf 9e93 7cbc 6562 20bc
00000150: 02ad 8bbc 6c7c 65bc 8e01 c6bc 310b c4bc
00000160: b721 fcb6 0964 74bc 2ffc 88bc 4895 64bc
00000170: 31fa 83bc f139 94bc a61c 83bc c99f 65bc
00000180: 92ed 96b6 8f42 debc ab98 88bc 433a 7cbc
00000190: 8487 c8b4 f143 c7bc f73d b0bc 3cb8 b7bc
000001a0: c96b 9cb9 34e2 91bc 4e33 b9bc 9588 43bc
000001b0: ddb3 46b8 6e6a 29bc baa2 c4ae b8c2 57bc
000001c0: a8f4 aebc 62d7 eabc c11f a5bc 5dd2 84bc
000001d0: 2634 babc 645b 9334 908a 88bc 1546 50bc
000001e0: 8160 b3bb e999 dfbc 37b0 03bc 5e74 26bc
000001f0: 812d 89bc 1b50 72bc b142 1bbd ba69 0cbc
00000200: 5558 afbc c3b2 e5bc 9b49 9bbc 9d48 aabc
00000210: b894 a6bc 735d 56bc 2873 86bc 2ebd a9bc
00000220: ee16 2db5 c8d2 1bbd 41d8 b6bc eb15 5ebc
00000230: 4196 4cbc 24ed e6bc 470d a0bc 08ba 25bb
00000240: 8f6e eabc 4e6c b6bc 24e3 87bc baa5 bdbc
00000250: 3177 89bc a667 59bc 22b4 85bc d746 a5bc
00000260: 2b16 04bd 6eba 88bc bd2d 84bc fdd6 88bc
00000270: 7ad8 b7bc 381a 89bc 05e5 4abc e279 24bd
00000280: 450a 7cbc cf1d 89bc cc87 c3bc 5b51 ebbc
00000290: 92cf 0bbc 90c9 c5bc 2dbc 6ebc 6042 d0bc
000002a0: 07bc bfbc 5910 29bc de4e a8bc 4365 11bc
000002b0: d1fa 77bc ff7e 72bc 7d38 8bbc f394 3eb6
000002c0: 7137 8bbc e284 efbc 64ef 97bc d796 78b5
000002d0: 9554 81bc f33c 00af 72e5 7cbc d968 20bc
000002e0: cae4 8bbc ae6b 65bc 6900 c6bc 22e1 c3bc
000002f0: 73ba 01b7 d294 74bc 7be8 88bc 199a 64bc
00000300: 08fa 83bc d14a 94bc 8d20 83bc ceb6 65bc
00000310: 52ad 96b6 47e4 ddbc eff2 87bc 6830 7cbc
00000320: 5dfa d9b4 4844 c7bc 67ca afbc d6e0 b7bc
00000330: c818 9cb9 2963 91bc 5633 b9bc 8190 43bc
00000340: 7d7f 47b8 4580 29bc 2378 c4ae 4076 57bc
00000350: fcc4 aebc b2d9 eabc e9b2 a5bc 2314 85bc
00000360: 7e32 babc 6349 9935 c291 88bc 465e 50bc
00000370: 3915 b2bb 6598 dfbc a9ae 03bc 9ab6 26bc
00000380: 5537 89bc 6154 72bc 95ab 1bbd b751 0cbc
00000390: 6757 afbc 6f95 e5bc 89f7 9bbc d144 aabc
000003a0: 9695 a6bc 9d76 56bc 6dbc 87bc 15c8 a9bc
000003b0: ee04 3bb5 8630 1dbd a56b b7bc 7a14 5ebc
000003c0: 3998 4cbc 0adb e6bc 3ef6 9fbc 3bbe 25bb
000003d0: 4666 eabc b668 b6bc 8ae6 87bc 9a6a bdbc
000003e0: 457f 89bc 7477 52bc 5ca4 85bc bc51 a5bc
000003f0: 2830 04bd 3bc4 88bc 922e 84bc 6acd 88bc
-3.4618887e-07 -0.02431856 -0.021492712 -0.022441564 -0.00029970272 -0.01788324 -0.022607503 -0.01193568
-4.7342342e-05 -0.010344885 -8.942841e-11 -0.013158385 -0.021346483 -0.028667444 -0.020425236 -0.01625088
-0.022729095 9.769883e-08 -0.01667121 -0.012720578 -0.005479105 -0.02729358 -0.008037644 -0.010164609
-0.016748084 -0.014789828 -0.037556164 -0.008570322 -0.021403925 -0.028038932 -0.019197594 -0.020785568
-0.020334411 -0.013089846 -0.016735634 -0.020721631 -5.840802e-07 -0.03858436 -0.022351367 -0.013554959
-0.012487059 -0.028108956 -0.019526893 -0.002528792 -0.028612342 -0.02226725 -0.016588967 -0.02314355
-0.016782142 -0.013261728 -0.016314197 -0.020178523 -0.032235425 -0.016691072 -0.016134968 -0.016700968
-0.022442894 -0.016731007 -0.012416889 -0.04013195 -0.015385523 -0.016752686 -0.023878807 -0.029059157
-0.008516145 -0.024143672 -0.014536012 -0.025173381 -0.023407778 -0.010656931 -0.020453813 -0.0087178
-0.015134606 -0.014801808 -0.017040003 -2.8575218e-06 -0.017147152 -0.02928392 -0.018541206 -7.537891e-07
-0.015790103 -1.5463059e-10 -0.015416054 -0.009789084 -0.01705027 -0.014006715 -0.024170663 -0.023931118
-7.51411e-06 -0.014916428 -0.016721813 -0.013951607 -0.016110511 -0.018094035 -0.016004872 -0.0140151465
-4.498005e-06 -0.027131347 -0.01667436 -0.01539475 -3.7351504e-07 -0.02432439 -0.021513922 -0.022426717
-0.00029834945 -0.017808057 -0.022607472 -0.011934419 -4.737439e-05 -0.010340316 -8.941954e-11 -0.013168983
-0.021356896 -0.028667156 -0.020156743 -0.01621359 -0.022729944 2.744738e-07 -0.016667634 -0.012712021
-0.0054741506 -0.02729507 -0.008037618 -0.01015958 -0.01674533 -0.014789606 -0.0379054 -0.008570129
-0.021404425 -0.028039342 -0.018955996 -0.020786578 -0.020334587 -0.0130838035 -0.016412333 -0.02072009
-6.448089e-07 -0.038042814 -0.022319915 -0.01355503 -0.012486995 -0.02818925 -0.019537581 -0.0025287885
-0.028617172 -0.02226844 -0.016587801 -0.023150314 -0.016780468 -0.013269341 -0.016321246 -0.02017538
-0.032247704 -0.01669046 -0.016135091 -0.016704077 -0.022442091 -0.016736135 -0.012383704 -0.0401553
-0.015383308 -0.016737847 -0.023868464 -0.028725317 -0.008533375 -0.024143964 -0.014571232 -0.025422275
-0.023405088 -0.010318839 -0.02054542 -0.00887424 -0.015135483 -0.014800786 -0.01699471 -2.8398906e-06
-0.01699421 -0.029238168 -0.018546768 -9.26067e-07 -0.015787402 -1.1663186e-10 -0.015435563 -0.009790623
-0.017076869 -0.014002724 -0.024170117 -0.023911063 -7.73241e-06 -0.01492806 -0.016712418 -0.013952755
-0.016110435 -0.018102081 -0.016006732 -0.014020635 -4.4905255e-06 -0.02708639 -0.016595332 -0.0153924
-4.0601563e-07 -0.024324551 -0.021458818 -0.022446077 -0.00029773102 -0.017747479 -0.022607487 -0.011936308
-4.756403e-05 -0.010345523 -8.9343886e-11 -0.013150752 -0.021334164 -0.028668258 -0.020226913 -0.016244953
-0.022729155 1.1420747e-06 -0.016671065 -0.012717789 -0.005434659 -0.027294347 -0.008037248 -0.010175372
-0.016750017 -0.014790625 -0.03800543 -0.008564404 -0.021403981 -0.028025357 -0.019038932 -0.020784767
-0.020335 -0.013089803 -0.01656934 -0.02072529 -6.96701e-07 -0.038376354 -0.022390196 -0.013554687
-0.012487465 -0.028180618 -0.019526597 -0.0025290388 -0.02861322 -0.022266727 -0.016589422 -0.02312212
-0.01678432 -0.012845863 -0.016313724 -0.020180576 -0.032272488 -0.016695132 -0.016135488 -0.016699512

fc2_1.bias f4 [12]
00000000: 0d34 53bd fa33 53bd 2e34 53bd 2034 53bd
00000010: c58b 9e3e 0334 53bd 3434 53bd fc33 53bd
00000020: f933 53bd 6c34 53bd c839 533e bb34 53bd
-0.05156331 -0.05156324 -0.051563434 -0.051563382 0.3096601 -0.051563274 -0.051563457 -0.051563248
-0.051563237 -0.051563665 0.2062751 -0.05156396

fc2_2.weight f4 [12, 100]
00000000: 1d8d e6b5 ad9c 02bf a8e6 bbbc cb02 8fbd
00000010: f934 73bb afb1 1fbd 9984 443e 33d0 20bd
00000020: 163d a639 fe96 e03c 5151 f1af 9998 4abc
00000030: 7132 8dbd e947 dd3b e2da 8e3d 930d 85bd
00000040: 9cc2 d6b9 8670 9e37 5d9c 2a3e b45b 0cbe
00000050: 7bbe 133c 9778 833e ffaf ac3d 09dc 8dbd
00000060: cde3 843d 54ac e3bd 796f d2bd ee00 8a3d
00000070: b9fb 223d e6d5 2dbd a731 a4bd 01c2 8cbd
00000080: 8dc1 71bd 28f1 2e3d a76d 293e ef6b 813e
00000090: 8e36 74b6 eee8 e4bd 56b3 283e 4047 3e3e
000000a0: 86cc 96bd 6cb6 d13d d816 913d 58e8 a5bc
000000b0: c787 60bc 0e40 ab3d 1c0e eabd 695f 353e
000000c0: 7a50 c63d abd5 8fbd a3b0 d23d 55a2 7bbd
000000d0: b96e 033e 30fd 293e 2eed b7bd 9d26 adbd
000000e0: 21d7 c53d c77b 95bd 2d3c b9bd c812 2abd
000000f0: c3ba 05be 327a a5bd 6c10 263e a616 61be
00000100: 40d2 9fbd ff75 273f 4677 87bd 170e 043d
00000110: 014c 273e 7578 813d fd4d 313e 3252 413d
00000120: df85 cebc eea2 c5bd 0542 8ebd c27c ce36
00000130: 8d6e dbbc 5b6b 15bd f8ab 88bd 13fd 3eb7
00000140: d7fa 26be e88a 58b0 baf9 833e cf4a efbd
00000150: b307 18be 7673 2c3d dcb8 2a3b 8d8b 0d3e
00000160: f0d1 0138 e390 1b3e be51 a3bd fe6d 0e3e
00000170: a8a3 433d 8725 4f3e bbd1 24be 363c 1cbe
00000180: 625a 28b6 f334 523c 80a1 8fbd 8237 1d3e
00000190: 4a08 2935 d780 093e eec1 803d 70d0 aebd
000001a0: 769a 843b 1d8d 9dbd 96fb 503e f243 cfbd
000001b0: 112a 0139 6e44 a8bd e1c5 06b0 3bea 5dbd
000001c0: a48e cebe 8fdb 5f3d 53aa 05be 05ed a2bc
000001d0: 04f6 173c a8bb aeb7 37a9 0e3e df0b ce3c
000001e0: b1c5 30bd 29aa 1b3e 509c dc3d 4080 8dbd
000001f0: 604c 40bd 2549 54bd 8eb3 c7be 65ec 1bbd
00000200: f038 c2bc 0f9c 8bbc a59a 1dbe 212e e2bd
00000210: e89e 3fbe 4195 e1bd aadc 0d3e b627 783e
00000220: e19b dbb6 c878 513e 0493 a3bd 7399 4b3e
00000230: 61a8 e9bd 2496 033e ca26 f23d 1a53 073c
00000240: 5e6b d8bc 2468 d03d 0be3 27be 34f7 09be
00000250: 873f df3d b0d9 e6bd 89c4 6b3e 0f37 c5bd
00000260: b6e7 8bbd 29c2 0e3e 2b2e cdbd 5222 e0bd
00000270: 8e41 9d3e 6509 0abe 4633 0bbe cb1c 82bd
00000280: 1fa3 063c 2ebe 4cbe ab33 103e fafe a1bd
00000290: f56f 7d3b 8bf3 043f ae2d ee3a b37d e53c
000002a0: 8965 f73d e521 553d 690a d23d 4f92 cebd
000002b0: 139e 01be cc0c 00be 30ba 48be 7bc2 2d37
000002c0: f103 20be 76b1 593e 7e52 cdbd b50c 2db8
000002d0: e807 9e3c f17e 1f30 2528 c93d 1708 a4bc
000002e0: 2907 27be a3e4 a3bd 1984 1d3d 726f 223e
000002f0: ee39 31b6 8eef 213e a3ad b1bd 32fe 0d3e
00000300: 7010 593e 840b 983d e8b0 11be dfa8 523c
00000310: 8038 bd38 5629 c53e d952 d0bd 68cb 033e
00000320: 1aba 63b6 9e06 963d 3b58 3bbe 0b2f 3bbd
00000330: 4a51 4e3a 5ca0 0dbe 721d 073e 721d fdbd
00000340: 6378 8d39 cea6 13bd ce4f 52b0 33a7 02bb
00000350: c868 13be 79cd 4f3e 8b52 63bd 3f15 22be
00000360: c390 093e c27b d8b7 1d36 2d3e 7bcf 74bd
00000370: 2de8 763d 0aff a33d a4d9 613d 5075 0dbe
00000380: 8d50 fd3d d9de f8bd f1c2 81be 6401 e4bd
00000390: 41b5 183e 2ce8 8b3d d6be d9bd 361e d4bd
000003a0: a06b ac3e d44f afbd 3dc6 2c3e 45b9 8d3c
000003b0: 0658 1e36 5685 a1be accf 663d b701 d53d
000003c0: 683d 35be 0c8b dc3d 3cfb 523e fa3a 9f3b
000003d0: 7e4c b23d 24ba 193e e242 05be 3d64 b33c
000003e0: 0296 d43d 6027 d7bd f08b 1b3e 794e 91bd
000003f0: 0252 213e fc6f 2d3e 1f86 bcbd 0cef a2bd
-1.7177405e-06 -0.5102032 -0.022937134 -0.069829546 -0.0037110432 -0.03898781 0.19191207 -0.039261054
0.000317075 0.027415749 -4.3895423e-10 -0.012365484 -0.068943866 0.006752957 0.06975342 -0.0649673
-0.00040962256 1.8887466e-05 0.1666121 -0.13706857 0.009017582 0.2567794 0.08432006 -0.06926734
0.06488762 -0.11116853 -0.10275168 0.067384586 0.039790843 -0.042440318 -0.08017283 -0.06872941
-0.059022475 0.042710453 0.16545735 0.2527766 -3.6390588e-06 -0.1117724 0.16474661 0.18581867
-0.073632285 0.10239872 0.07084435 -0.020252392 -0.013704247 0.08361827 -0.114284724 0.17712177
0.096833184 -0.07023176 0.10287597 -0.06143411 0.12835206 0.1660049 -0.08980785 -0.084546305
0.09660173 -0.07298999 -0.09044681 -0.041521817 -0.13059525 -0.080799475 0.16217202 -0.21981296
-0.07803774 0.6541442 -0.066145465 0.03224 0.16337587 0.063218035 0.17314906 0.04719753
-0.02521032 -0.09650217 -0.06946186 6.153802e-06 -0.026786113 -0.036479335 -0.066734254 -1.1383806e-05
-0.16306625 -7.877774e-10 0.25776464 -0.116841905 -0.14846687 0.0421023 0.0026050126 0.13822766
3.0951516e-05 0.15191989 -0.079745755 0.13909146 0.047763497 0.2022916 -0.16095631 -0.15257344
-2.508656e-06 0.012830007 -0.070132256 0.15353206 6.296947e-07 0.13428055 0.06286989 -0.0853585
0.0040467335 -0.07692931 0.20408472 -0.101203814 0.0001231807 -0.08216177 -4.903012e-10 -0.054178458
-0.403432 0.054652747 -0.13053255 -0.01988841 0.009274963 -2.08298e-05 0.13931738 0.025152145
-0.043157283 0.1520163 0.10772002 -0.06909227 -0.046947837 -0.05182757 -0.39004177 -0.03806724
-0.02370879 -0.017042188 -0.15391023 -0.11043955 -0.18712962 -0.11014796 0.13853708 0.24233899
-6.5448553e-06 0.2045623 -0.079870254 0.19882755 -0.11409069 0.12850243 0.11823805 0.008259559
-0.026418384 0.10176113 -0.16395204 -0.13473207 0.10900789 -0.11271989 0.23024191 -0.09629642
-0.06831305 0.13941254 -0.100185715 -0.10944046 0.30714077 -0.13480146 -0.13593778 -0.06353148
0.008217602 -0.19994423 0.1408221 -0.07909961 0.0038671468 0.5193412 0.0018171573 0.02801404
0.12079913 0.052034277 0.10255892 -0.100865 -0.12657957 -0.12504882 -0.19602275 1.0356885e-05
-0.15626504 0.21259102 -0.100255 -4.125825e-05 0.01929088 5.802426e-10 0.0982211 -0.020023389
-0.16311325 -0.08002593 0.038456056 0.15862826 -2.6408775e-06 0.15814039 -0.08675697 0.13866499
0.21197677 0.074240714 -0.1422764 0.012857645 9.022746e-05 0.385081 -0.10172052 0.12870562
-3.3933961e-06 0.07325481 -0.18295376 -0.04569916 0.00078703894 -0.13830703 0.13194826 -0.12359132
0.0002698331 -0.03604775 -7.6510964e-10 -0.0019936084 -0.1439544 0.20293225 -0.05549864 -0.15828417
0.13434128 -2.5806836e-05 0.16915174 -0.05976818 0.060280014 0.08007629 0.0551392 -0.13814282
0.123688795 -0.1215188 -0.2534404 -0.11133078 0.14912893 0.06831393 -0.10632102 -0.10357325
0.3367586 -0.08560148 0.16872497 0.017300257 2.359507e-06 -0.3154704 0.056350395 0.10400718
-0.17699206 0.107687086 0.20603651 0.0048593255 0.08705996 0.15012413 -0.13013795 0.021898383
0.10380174 -0.10505557 0.151901 -0.070950456 0.1575394 0.1693725 -0.09205269 -0.07955751

fc2_2.bias f4 [12]
00000000: 893c f4bc ef94 eabb 34b7 883d 2202 ef3c
00000010: 78b1 033e 7dd0 58bd 77bb 803c 1083 353c
00000020: 9e0b 4dbd 4e04 dcbd 5267 8e3c 9ab6 adbc
-0.029814022 -0.0071588675 0.06675568 0.029175822 0.12860668 -0.052933205 0.01571439 0.011078611
-0.050059907 -0.107430086 0.017383251 -0.021205235

fc2_3.weight f4 [6, 100]
00000000: b213 97b4 3cb2 bfbc 1e65 f8bd ff84 01bc
00000010: f578 a53b 2cb5 63bc 9cce 99bd 48be 31be
00000020: 7828 76b8 d5ba 56bc dbd9 f6ae dc66 5abc
00000030: 3796 58bd 6877 dabb 512e b3be 8c41 6d3c
00000040: 6e1a 5f3b cfe4 a3b7 d56d 463e 99a4 27be
00000050: 3853 13b9 1910 c33d 278a c43c b8bd 29be
00000060: c71d ddbc cb87 53be 818e 573d 134d 16bd
00000070: f142 b0bc 2012 a03b 5884 d33c 908e 87bc
00000080: 2f55 143e 3187 713c b71d 463e b56c 4b3e
00000090: 15ad 80b6 2158 cd3d 127c 87be 085a cb3d
000000a0: add1 42be 07dc ec3b b973 0bbc 54f4 053c
000000b0: a9ad 36bc 2a9c 1cbc 4502 21bc 2f63 a53a
000000c0: 3a66 ecba 9637 1dbb c498 063d f017 7dbc
000000d0: 32a9 bfbd 06af 463e 25e3 62bc 88b3 bcbc
000000e0: c316 d7bc 27dc a33c 7238 c13c 8024 f6bc
000000f0: 8aa8 62be 9b37 4ebc 0703 c03b bc40 e33e
00000100: 2dc7 6c3b 19b9 833e 1802 8a3c 4628 b4bc
00000110: e9d7 3d3c d406 943c b695 883a 9bce 233d
00000120: 4b0d 243d 4fa3 2fbe 32c3 efbb cc3d 64b7
00000130: e2d6 79bd 64f3 eb3e 971f f9bb 885a d7b7
00000140: 23ac 5abe 1e4a aa30 06f3 61be 0671 21bb
00000150: 5eb1 4cbe a767 dabc 0afb 43bb 99d0 0c3d
00000160: 7271 83b8 cfb6 4d3d 8c26 aebc 23a0 283e
00000170: 36fa f63d 041a a23c 076b 57be 740b 3ebe
00000180: ac1a 9c37 148a 03be 5def 8bbc d24d 373e
00000190: a714 be35 9b52 d6bd 4aa7 773e 3cd0 c33c
000001a0: 2da5 05bb 1e19 7d3d abf5 ee3d c13c 663c
000001b0: da6c bfb8 bfd8 1c3d f904 b92f 575f 573c
000001c0: 3515 08bd 544e c0bc 6761 d73e b31f 223d
000001d0: 0b4c 8ebc 91a0 d037 f2a7 8fbd b38f f6bc
000001e0: ba5c 7abd 900f 21be 0811 f9bc 5471 903d
000001f0: c2e1 33bd 75cb 80bd 90a8 393e fa0f beba
00000200: 97cc 49bc 19d1 0b3c 4166 9bbd be44 2b3d
00000210: bb3f 52be b1f8 b7bd 3b10 90bd 1bee 9abc
00000220: 7a9b 3437 5da5 313e f8a2 523d 4b0f 3bbd
00000230: 2df6 553d a612 efbc fe9e 2cbe cfdd c1bb
00000240: 9e22 863c c413 37bb 6de5 453d 7155 d2bd
00000250: 634e 6bbc c7fd 03bd f5a2 03be 9269 113d
00000260: e3e0 9cbc 9db7 8fbd 2165 dd3c 7538 823b
00000270: 09e5 f03d 9356 73bd 6f0a 93bd 4849 b23d
00000280: 2bb8 a5bc 26ac 953d d3ac babd b51b 2fbe
00000290: 2a3f 2dbe 7b50 363c edda 433d 6859 1abe
000002a0: d653 01bd 4475 40bd 1f52 11bd 6149 11be
000002b0: 3806 febd 6de6 c0bd 2ba2 ac3d 2f25 de37
000002c0: bf6c 803d 9ed0 14be 7382 e23c d6e1 6db7
000002d0: 113f 34bd b995 e5af 4bee d83d 64cb b0bc
000002e0: f56d 62bd d826 03bd 37f3 c73c e140 e9bc
000002f0: 6513 b037 44fe 82bd d2c8 6a3d 6640 7dbd
00000300: 4f66 d5bd d200 78bd 94e1 993d 780a 3dbd
00000310: 51b4 9236 cdb7 d2bd 482d fa3c c6a4 84bd
00000320: 32b9 a6b4 a8f6 5d3e fb4d 82bd aeb0 963d
00000330: 77cb 99ba 4854 4dbc 5083 a73a c825 503e
00000340: 7a16 39b8 1f76 93bc 2e66 4a2f 5d23 db3c
00000350: e7fb 093d 3367 233e 3e9f ae3d 7b42 463c
00000360: 3786 fd3d 4194 2e36 e21e 75be 0096 143e
00000370: fde8 3b3c 6d37 07bc 689e e83b 1b21 313e
00000380: 7b06 693d ff99 5f3e b821 813d 8057 bebc
00000390: 1823 d53d 0125 073e 84a2 513c 2f11 ec3c
000003a0: 6cda aabd 5165 1dbc 7147 74be 16f4 96be
000003b0: 8276 dab6 33ed 1bbc 8b3b 5bbe 5d1b 1fbd
000003c0: b51e 633e 3a0b acbd bba2 243a acb5 983c
000003d0: 166a e33d 8ab6 2c3d 4fe8 613d 5104 19be
000003e0: d7c9 423c c8fb 1f3c 9a61 603c 341b 383d
000003f0: 7103 89bd affa 74be 7216 563d 96d9 753d
-2.8140272e-07 -0.023400418 -0.121286616 -0.007905244 0.0050498196 -0.013898175 -0.07510111 -0.17357743
-5.868866e-05 -0.013106068 -1.1225484e-10 -0.013330188 -0.05287763 -0.0066670664 -0.34996274 0.01448096
0.0034042853 -1.9537662e-05 0.19377835 -0.16371383 -0.00014050014 0.09524555 0.023991657 -0.16576278
-0.026991738 -0.2065727 0.052626137 -0.036694597 -0.021516295 0.004884973 0.025819942 -0.016547471
0.1448562 0.014741705 0.19347273 0.19865687 -3.8348467e-06 0.10026575 -0.26461846 0.099292815
-0.19025297 0.0072283777 -0.008511477 0.008175928 -0.011149802 -0.009558717 -0.009827201 0.001261806
-0.0018035837 -0.002398943 0.032860532 -0.015447602 -0.09358443 0.19402704 -0.013848101 -0.023034826
-0.02625597 0.020002438 0.023586486 -0.030046701 -0.22134605 -0.0125865 0.005859736 0.44385326
0.003612946 0.25727156 0.016846702 -0.02199186 0.0115871215 0.018069662 0.0010420594 0.039991956
0.04005174 -0.17152141 -0.0073169703 -1.3604247e-05 -0.060995944 0.4608413 -0.0076026428 -2.5672154e-05
-0.21354727 1.2390193e-09 -0.22065362 -0.0024634018 -0.19989535 -0.026660753 -0.002990427 0.03437862
-6.2676976e-05 0.050223168 -0.021258615 0.16467337 0.12059443 0.019787796 -0.21036921 -0.18559057
1.860907e-05 -0.12845641 -0.01708191 0.1790078 1.4162114e-06 -0.104649745 0.2418491 0.023903005
-0.0020392642 0.06179153 0.11667951 0.014052571 -9.127865e-05 0.038292643 3.3654837e-10 0.013145289
-0.03322335 -0.02347485 0.420665 0.039581012 -0.017370244 2.4870302e-05 -0.07014455 -0.030097818
-0.061123587 -0.15728593 -0.030403629 0.070528656 -0.04391647 -0.06288806 0.18130708 -0.0014500611
-0.012316844 0.0085337395 -0.07587863 0.041813605 -0.20532124 -0.08982981 -0.07034346 -0.018912366
1.0765036e-05 0.17348237 0.05142495 -0.04566888 0.052236725 -0.029183697 -0.16857526 -0.005916334
0.016373929 -0.0027935365 0.0483145 -0.10270203 -0.014361951 -0.032224443 -0.12855132 0.03550107
-0.019150203 -0.07017443 0.027025761 0.0039740154 0.11762435 -0.059408735 -0.071797244 0.087053835
-0.02022942 0.07308225 -0.09114995 -0.17100413 -0.16918626 0.0111275865 0.047816206 -0.15073168
-0.031574093 -0.046986833 -0.035478707 -0.14188148 -0.1240353 -0.0941895 0.084293686 2.6481777e-05
0.06270742 -0.14532706 0.027650094 -1.4178882e-05 -0.044005457 -4.1761242e-10 0.10592326 -0.02158136
-0.055280644 -0.032019466 0.024407966 -0.02847332 2.0989866e-05 -0.063961536 0.057320423 -0.061828993
-0.104199044 -0.060547657 0.07513729 -0.046152562 4.3721307e-06 -0.102889635 0.03053917 -0.064767405
-3.1054657e-07 0.21676123 -0.0636253 0.07357918 -0.0011733611 -0.012532301 0.0012780223 0.20326912
-4.412837e-05 -0.01800066 1.8408094e-10 0.026750261 0.0336875 0.15957336 0.08526467 0.012100811
0.12379115 2.6014316e-06 -0.23937562 0.14510345 0.011469123 -0.008252961 0.0070989616 0.17297785
0.056890946 0.21836089 0.063052595 -0.023235083 0.10407084 0.1319771 0.012795094 0.028816788
-0.08342442 -0.009606675 -0.23855378 -0.29483098 -6.5107024e-06 -0.009517002 -0.21409433 -0.038844455
0.22179683 -0.08400579 0.0006280352 0.018641315 0.11104219 0.04216627 0.055153187 -0.14943053
0.011888943 0.009764619 0.013695145 0.044947818 -0.066901095 -0.23923753 0.0522675 0.06002196

fc2_3.bias f4 [6]
00000000: 14ef 85bd 4ad3 893c 3d23 c4bd 933b abbc
00000010: 9843 393d a9b2 f63d
-0.06539741 0.016824383 -0.09577034 -0.02090243 0.045230478 0.120457955

fc2_4.weight f4 [12, 100]
00000000: fcb2 6fb6 ac3c 9fbe 69db 14bd 42af 17bd
00000010: cae5 6ebb 8a4d 44bd d7f8 643e bde9 fbbd
00000020: a963 8b39 3ff7 c63c d870 03b0 cb6a 4b3c
00000030: 6c0f 2ebe d233 f53d fe33 acbe 0584 89bd
00000040: 68bc 883d c093 bfb2 0bf6 3e3e da36 78bd
00000050: 04db 243c e704 793e 1424 e43d 4db1 f8bd
00000060: 5230 703d 5e48 e7bd 6aeb 8cbe fdd5 1e3d
00000070: 3d29 8d3d 3cfd d73c a6cb 44bd afb7 5bbd
00000080: 37f4 efbc 93e8 24be fb88 3d3e d7d9 563e
00000090: 66e8 22b7 61c5 cabd 3917 82bc f8fd 6d3e
000000a0: 4e20 fdbd 8339 5b3d 9d03 003e 8513 52bc
000000b0: 7913 783d a94e f23d fc6a 12be a3b7 053e
000000c0: 5c8d e03d 3277 ebbd 739a 393e 883f 25bd
000000d0: b459 843c 30b5 3e3e 603c a5bd d890 8fbd
000000e0: f911 063e 5d9a 45bd 0f67 aebd 9d16 f43c
000000f0: b882 01be fd10 14be 9ce6 3a3e 5e5e 9abe
00000100: b8ed 203d 617d 263f d09a 88bd c63b 863d
00000110: d38b e23d 4d00 993d 3307 213e b16b 9a3d
00000120: ddbb ce3c 29be 06be 5f76 21be 4063 a4b7
00000130: 192d 56bd 68f4 43be 6341 49bd e42b cab4
00000140: 9542 01be be98 cb2f e8b8 583e 4a4a a2bd
00000150: 9bff 34be 2263 503d 1094 983d 9f83 363e
00000160: 9cfa e2b6 11a6 113e 7cb2 b4bd 44a6 233e
00000170: 1866 ac3d c9be 323e 19a0 15be df3b dfbd
00000180: ff01 80b5 f811 a73d a2b4 a3bd 6ec1 2f3e
00000190: d3cb 1536 fab0 b13d 54c9 49bd 464c c4bd
000001a0: 2869 553b 8510 f6bd d1b9 d53d c83d 53bd
000001b0: ea8a f838 9bf5 10be 6cc8 15b0 4e3e b0bd
000001c0: c2be 8fbe 196e 1c3d a207 80bc 2362 d2bc
000001d0: 446c 123c 3e03 6a37 6650 263e 9fa8 3b3c
000001e0: 695c 77bc 131b 8d3e 7d91 cf3d 9411 bcbd
000001f0: f677 65bc 6dc7 14bd 0cbd a1be 6883 6bbd
00000200: 6afc 81bc a38a bbbc 7cd1 20be 69de 14be
00000210: 686d 76bb 5cfd 043e ba79 253e c706 273e
00000220: 38d6 9ab6 3c03 153e 734e df3c 63bd 3f3e
00000230: 00be 1ebe 4f5a d13d 0166 113e af94 843c
00000240: 86cb 8cbd 8ee1 a13d 2411 07be fee1 23be
00000250: 3aed ab3d 6294 38bd 54e1 213e e461 fabd
00000260: 103e 90bd 4c1e 263e 6b42 dfbd 0537 e5bd
00000270: 8d23 703e 2720 0bbe 384a 03be df7c 28be
00000280: 9383 6e3d d033 12be ae7a b73d 6965 a83c
00000290: ca04 6fbd 1549 013f 0f78 b8ba b01b 553b
000002a0: 6389 893c e0e3 123d 357d cc3d da04 a6bd
000002b0: 0adc 0dbe 29dd d9bd 1e57 e1bd 2851 3437
000002c0: fcaf 97bd 015b ce3e fc39 09be d9d9 53b8
000002d0: 56a1 303d 1e89 99ae ebb5 013d be32 1bbd
000002e0: 7117 57be bcd2 9ebd a2d9 94bb 7a6e a73d
000002f0: 63b5 d3b7 3ef0 283e 4712 c7bd 71d4 1b3e
00000300: 7b92 3e3e 9e39 0f3e d52f d0bb 951b c73c
00000310: 9eeb c138 4c1d 493e 8422 dabd f4cb 193e
00000320: a0ea 0cb6 fc1c 6b3d 84cb 47be 569e 1bbd
00000330: 298c 7f3a 1b7a f3bd 1bc1 4e3e 2147 62bd
00000340: 6b51 2239 36b4 27bc 90b1 37b0 de68 c13b
00000350: 62eb d9bd 92e6 283e 2b85 843c f4cc 14be
00000360: 4c86 f43d 5587 3eb7 adce 503e 8ee1 27be
00000370: 2b9d 873d ff8d f13d ef0a 4f3d 7f56 58bd
00000380: 48c2 f03d 1cc1 edbd 55ac 3fbe 212b 9cbd
00000390: ca4a 0c3e c0d4 783d 6a69 e2bd 7dd1 a9bd
000003a0: 2274 a33e 78d7 bbbd 0add 4f3e 6d84 833d
000003b0: 9097 68b6 4d25 a1be ecee ed3c 90b3 b03d
000003c0: 0110 86bd 6c26 a23d f9f1 463e 1997 963b
000003d0: 9c24 b03d 9a60 d73d 4758 ecbd a524 0fbd
000003e0: 5269 a03d f421 b3bd c421 173e cf3a 64bd
000003f0: d541 123e 15e8 503e 0b1a c6bd fefc a8bd
-3.5717958e-06 -0.31100976 -0.03634206 -0.037032373 -0.0036452883 -0.04792551 0.2236055 -0.123004414
0.000265864 0.024287818 -4.7817883e-10 0.012415598 -0.1699807 0.119727746 -0.33633417 -0.06714634
0.06676561 -2.2302515e-08 0.18648545 -0.060599186 0.010061983 0.24318276 0.11139694 -0.121431924
0.05863983 -0.112931 -0.27523357 0.038778294 0.06892631 0.026365869 -0.048045777 -0.05364197
-0.029291255 -0.16104345 0.18509285 0.20981537 -9.710062e-06 -0.09900928 -0.015880214 0.23241413
-0.12359677 0.053521644 0.12501378 -0.012822037 0.060565446 0.118314095 -0.14298624 0.13058333
0.10964462 -0.11497344 0.18125324 -0.04034379 0.016156055 0.18623805 -0.08068156 -0.07010049
0.13092794 -0.048242915 -0.085157506 0.02979594 -0.12647521 -0.14459606 0.18252033 -0.3015012
0.039289206 0.65035063 -0.06670153 0.0655437 0.110618256 0.074707605 0.15725403 0.07540072
0.025236065 -0.13158478 -0.15767811 -1.959654e-05 -0.052289102 -0.19136202 -0.049134623 -3.7657367e-07
-0.12623055 3.7034015e-10 0.21164286 -0.07924326 -0.17675631 0.05087579 0.07450116 0.17823647
-6.7644996e-06 0.14223506 -0.08823106 0.15981394 0.0841791 0.17455591 -0.14611854 -0.109000914
-9.537324e-07 0.08157724 -0.07993437 0.17163631 2.2321371e-06 0.08676334 -0.049264267 -0.095848605
0.0032563899 -0.120148696 0.10435832 -0.05157259 0.00011851436 -0.14156191 -5.44907e-10 -0.08605634
-0.28075224 0.038190935 -0.01562864 -0.02568156 0.008936945 1.3948242e-05 0.16241607 0.011453777
-0.015097716 0.27559718 0.101351716 -0.0918304 -0.014005652 -0.036323 -0.31589544 -0.057498366
-0.01586743 -0.022893256 -0.15704912 -0.14537968 -0.0037601832 0.12987274 0.16159716 0.16311179
-4.614496e-06 0.14552015 0.027259087 0.18724589 -0.15502167 0.10222303 0.14199068 0.01618418
-0.068747565 0.07904349 -0.13190132 -0.16004178 0.08394857 -0.045063384 0.15808612 -0.122257024
-0.070430875 0.16222495 -0.1090134 -0.11192135 0.23451062 -0.13586484 -0.12821281 -0.16453885
0.058230948 -0.14277577 0.08958946 0.020556169 -0.058354177 0.5050214 -0.0014073866 0.0032517724
0.016789144 0.03586185 0.09984819 -0.08106394 -0.1385347 -0.10637886 -0.110029444 1.0747732e-05
-0.07406613 0.40303805 -0.13401026 -5.0509207e-05 0.043122612 -6.9819914e-11 0.03166763 -0.03789019
-0.21005036 -0.07755038 -0.0045425454 0.081753686 -2.5237625e-05 0.16497895 -0.09720283 0.15217759
0.18610565 0.13986823 -0.0063533583 0.024305144 9.246844e-05 0.19640082 -0.106511146 0.15019208
-2.0998195e-06 0.05740069 -0.19511229 -0.037992798 0.00097483635 -0.11888524 0.20190851 -0.055243615
0.00015479854 -0.010235837 -6.6827344e-10 0.0059023937 -0.10640599 0.16494206 0.01617678 -0.14531308
0.119396776 -1.1356392e-05 0.2039134 -0.16394636 0.06621774 0.11794662 0.050547536 -0.052816864
0.11755806 -0.11609098 -0.18718083 -0.07625414 0.13700405 0.06074977 -0.110552624 -0.0829191
0.3192454 -0.09171957 0.20299163 0.064217426 -3.4658915e-06 -0.3147377 0.02904459 0.08627999
-0.06546021 0.07917485 0.19428243 0.004595649 0.08600733 0.10516472 -0.11540275 -0.034947056
0.07832588 -0.087467104 0.14758974 -0.055720147 0.14282925 0.20401032 -0.09672936 -0.082513794

fc2_4.bias f4 [12]
00000000: b7b3 1bbd b42c 23bd 4e6e 13bd a0a6 b3bb
00000010: f5c0 5c3e 5540 3c3d 7560 333d cce0 843a
00000020: 403f d93c 888a 6fbd 41df bebd db65 7dbd
-0.038013186 -0.039837554 -0.035993867 -0.0054825097 0.21557982 0.04595979 0.04379316 0.0010137795
0.026519418 -0.058481723 -0.09319926 -0.061864715

fc2_5.weight f4 [6, 100]
00000000: cf13 1b35 b88b 193c ec88 0dbe 7879 62b8
00000010: d8a5 bc3b d348 873c 095a 32bd 1819 3dbe
00000020: f0c1 e5b8 d995 aa3c da1e 6b2c ba54 cf3a
00000030: 5b35 4dbd 9cb7 1dbd 2182 5abe 61c9 123d
00000040: 6c58 6bbc 6c26 aeb7 87f2 4c3e 7acf 2abe
00000050: 42c3 6bbc d92f 7bbd e4cb bf3c e03f d2bd
00000060: 252e 8fbd 0ce3 78be 00b9 103e 62ea 663c
00000070: bf85 41bd e915 51bb 0448 173d aaac 0c3c
00000080: 2391 193e edbe aabd ebc0 4c3e 0783 523e
00000090: 0680 4336 4415 283e 3830 adbe a391 b83d
000000a0: 642c 16be 5e4e 113d 3cbc 893c 4416 603b
000000b0: 49a2 1cbb 582b d5bc cef0 08ba c9d5 163c
000000c0: fd0e 99bc 7adb bfbc 229f 543d 36d5 6d3b
000000d0: 0a76 8dbd f042 4d3e d160 673b e33b a5bc
000000e0: 4b99 173d 61cb fb3c 4d62 663c 6852 aa3c
000000f0: f6b3 73be 73f3 0dbc 358b 7f3b eaf4 d73e
00000100: 03a6 26bd cb7d 823e 1632 133d e9a7 bf3a
00000110: 5694 a23a 12d1 aa3c c3b8 29bd 61d0 043d
00000120: 3fb8 1b3d 0b2d 81be 106c 43bc b795 a5b6
00000130: b3c3 76bd 9c3a 013f 6e29 793c a032 b0b7
00000140: febc 74be 84ba 1531 623b 27be 40e5 403b
00000150: 33fc 87be ecd2 30bd f001 9f3b f6d2 143d
00000160: 2d89 85b8 bfc8 4a3d 4112 ddba f123 2e3e
00000170: 0d70 183e a1d5 83bd 0a3a a7be a8bd 59be
00000180: 48fe 9537 bf2b 51be 28c5 c539 da59 3d3e
00000190: e0bc e834 07de 403b d1a4 2f3e 23dc 623d
000001a0: 7c95 24bb ea69 f23c 133e 903c 452b dd3c
000001b0: 67b2 f1b8 376c 423d ca1b 972f f623 0a3d
000001c0: 74df 8c3b d88b b33d 7224 2b3e e68e 933c
000001d0: 50c9 903d ccfa c836 0e6f b3bd 1655 a6bc
000001e0: 955d e7bc f1d7 b1bd 7412 17bd 7503 633d
000001f0: 2e09 8c3c da68 82bd d56a 8b3e 534a b4bc
00000200: cd32 903d 555f ae3d 316a 35bd 1a2c 383d
00000210: 0f12 12be e868 fdbd 276d b3bd 0162 58bd
00000220: 74d5 8db6 ba2d 9d3d 1416 64bd 8bfa 78bd
00000230: e7ac eb3c d785 b3bd 5adb 64be 63f0 b33b
00000240: 9268 bb3d 39e8 e53c a90a 703d 159f 2fbe
00000250: 3e06 05bc 596f 27bd 08bc 0dbe 3920 4e3d
00000260: 95c5 4bbd 58d9 b3bd 53f9 003d 6889 6d3c
00000270: e3d0 df3c bfe5 09bd 1b76 35bd 4814 003e
00000280: 6624 61bc 55e4 903d b3af d2bd d22e 0bbe
00000290: 8977 65be 58d8 00bc 954b f73c 82a4 40be
000002a0: f6d8 37bd 2bf6 6abd 837f 19bd 8fbd 03be
000002b0: 57a1 babd 5a6d 44bd a902 833d 0e4f 37b6
000002c0: b3e2 413e d7eb 36be 7946 d73c 3b95 ad36
000002d0: 6382 4cbd 4a96 0431 be70 3dbd ab33 50bc
000002e0: 9a74 85bd 1e98 d53c 679c ad3d 9aee a2bc
000002f0: d7d1 21b8 f8cf b8bd c499 383d 0253 94bd
00000300: e237 0dbe 04f2 98bc 0cb6 6e3b 63d1 4fbd
00000310: 82e4 55b7 c393 1ebe b2c6 b13c 2c42 a6bd
00000320: c8e8 3136 fc0b 033e 4c1e fb3d e2ea d13c
00000330: 9495 5bb9 6365 3d3d f75e 6c3d 220c 433e
00000340: 1fe7 1b35 6fba 253d 8134 972f d85e 163c
00000350: 82ae 1c3e 397f 3dbd 9a0a ce3d c639 3c3d
00000360: 7a58 d1bc 26be cab6 8a5c 80be 13ab 363e
00000370: d8c6 1abc 0f49 133d 2da1 89bc 56cc 263e
00000380: de28 6d3c 919b 7d3e 693e 493e 9a18 973c
00000390: 19cb 1dbc 5715 fcbb b7a5 1cbc f074 383d
000003a0: 000e 76be 50b5 8b3c c5a3 7fbe fe59 22be
000003b0: 626b b136 60d3 603d 5972 3dbe 0819 84bd
000003c0: 071c 7e3e 6c5e 0d3d d4c9 353c 129c 9c3a
000003d0: 32fc 28bc 303a 07bd 9a82 633d c6b0 8bbc
000003e0: 88e5 15bc 734f 6b3d cd5c 48bc 7d83 0a3d
000003f0: cb65 1c3d 196a 80be 669b 0b3c 2db9 823c
5.7770825e-07 0.00937169 -0.13821763 -5.3995725e-05 0.005757075 0.016514217 -0.043542895 -0.18466604
-0.000109556946 0.020823406 3.3412635e-12 0.0015818097 -0.050099712 -0.03850518 -0.21338703 0.03583658
-0.014364343 -2.0760308e-05 0.20014392 -0.16680709 -0.014389815 -0.061324928 0.023412652 -0.102660894
-0.06991223 -0.24305362 0.14133072 0.014093967 -0.04724669 -0.0031903929 0.036933914 0.008586088
0.14996772 -0.083371975 0.19995467 0.20557795 2.9131784e-06 0.16414362 -0.3382585 0.09012153
-0.14665371 0.035475127 0.01681339 0.003419296 -0.002390044 -0.026021644 -0.0005223871 0.009206244
-0.018683905 -0.023420084 0.051909573 0.0036290414 -0.0690728 0.20045066 0.003530551 -0.020170158
0.037011426 0.030736627 0.014061523 0.020791247 -0.23799118 -0.008664 0.0038992886 0.42179042
-0.040685665 0.25486597 0.035936438 0.0014622185 0.0012403827 0.020851646 -0.041435968 0.032425288
0.038017508 -0.25229678 -0.01192762 -4.9348123e-06 -0.060245227 0.50480056 0.0152076315 -2.1004409e-05
-0.2390022 2.1788376e-09 -0.16331246 0.0029433519 -0.265596 -0.0431699 0.004852526 0.036334
-6.367485e-05 0.049507853 -0.0016866402 0.17005898 0.14886494 -0.06437231 -0.32661468 -0.21263754
1.7880593e-05 -0.20426844 0.0003772166 0.18491307 4.3350792e-07 0.0029429214 0.17152716 0.05538572
-0.0025113514 0.02959152 0.017607724 0.026998172 -0.000115250055 0.047466483 2.7486485e-10 0.0337257
0.0042990986 0.087669075 0.16713122 0.018012475 0.07069647 5.989661e-06 -0.087614164 -0.020304244
-0.028242866 -0.08683766 -0.036882833 0.05542322 0.017094221 -0.06367655 0.27229944 -0.022008097
0.070409395 0.08514277 -0.044290725 0.044963934 -0.14264701 -0.12373525 -0.087610535 -0.05282784
-4.2269767e-06 0.07674737 -0.055685118 -0.06078581 0.02876897 -0.08765762 -0.22349301 0.005491303
0.091508046 0.028064834 0.058603916 -0.17150529 -0.008119164 -0.040877674 -0.1384126 0.0503237
-0.049748976 -0.087816894 0.031487774 0.014498092 0.027321285 -0.03366637 -0.044302087 0.12507737
-0.013741588 0.07074801 -0.10287418 -0.1359208 -0.2240888 -0.00786408 0.030187408 -0.18812755
-0.044884644 -0.05736367 -0.03747512 -0.1286528 -0.091128044 -0.04795585 0.06396992 -2.731514e-06
0.18934135 -0.17863403 0.026278721 5.1731745e-06 -0.049929034 1.9293958e-09 -0.046250097 -0.012707631
-0.065163806 0.026073512 0.08477097 -0.019889165 -3.858082e-05 -0.09024042 0.045068517 -0.07242395
-0.13790849 -0.01867009 0.0036424426 -0.050736796 -1.2748993e-05 -0.15486054 0.02170119 -0.0811809
2.6510552e-06 0.1279754 0.12261638 0.025624696 -0.0002094119 0.046239268 0.057707753 0.19047597
5.8078325e-07 0.040461 2.7504046e-10 0.009177886 0.15300944 -0.046263907 0.10060616 0.045953535
-0.025554884 -6.0422053e-06 -0.25070602 0.17838697 -0.009446822 0.035958346 -0.016800487 0.16288885
0.0144750755 0.24766375 0.19652714 0.018444348 -0.009630942 -0.0076929736 -0.009560994 0.045033395
-0.24028778 0.01705423 -0.24964817 -0.15854642 5.287512e-06 0.054889083 -0.18500651 -0.06450087
0.24815379 0.034513876 0.011095483 0.0011948368 -0.010314034 -0.033014476 0.055544473 -0.017052066
-0.009148963 0.057448816 -0.012229157 0.033816803 0.038183015 -0.25080946 0.008520937 0.01595744

fc2_5.bias f4 [6]
00000000: 8086 2cbd 07c5 cabd e6e3 5fbc 4653 b13d
00000010: f1a5 223d ee0f ef3c
-0.042120457 -0.09900861 -0.013665175 0.08658461 0.039709035 0.0291824
