Assets/Models/NNBaseline1/DeployAction.onnx (onnx, 42959 bytes, 6 tensors)

fc1.weight f4 [100, 51]
0.25189096 -0.033494394 -0.20338525 0.09331827 -0.10261565 -0.062200416 0.2940599 0.07412713
-0.16711864 0.16145337 0.10984967 0.08356385 -0.16835439 0.12660863 -0.061880104 0.1108339
0.37158164 -0.27413926 -0.07060476 -0.063909814 -0.07145177 0.040204436 -0.049373828 0.15642884
0.17532858 0.012966819 -0.004790715 -0.1052701 -0.054957956 0.23461069 0.21838488 0.027831215
0.046250116 -0.04833786 -0.13848488 0.008823529 0.36909086 -0.0917932 -0.0671601 -0.21775451
-0.10705933 -0.05176703 0.012509015 0.20167947 -0.25404596 -0.0060289875 0.04716443 0.11565363
0.2644065 0.06133442 0.13717444 0.033852313 0.027847487 0.0021937322 0.019780438 -0.028161086
0.016765257 0.11042624 -0.009106045 -0.06619755 -0.0077640354 0.037230834 0.12252399 -0.045099426
0.03374145 0.09381716 0.03287342 0.0354226 0.066135295 -0.053280786 -0.051250085 0.16885662
-0.014752401 -0.037646167 0.00063242065 0.16004838 0.005007039 -0.10729032 0.0042008315 -0.11136421
0.0105538145 -0.059095215 0.07891953 0.16852117 0.03826447 0.040335927 0.05426382 -0.11157454
0.048149444 -0.05578597 0.114195146 -0.063890226 -0.03273699 0.11707555 -0.00077715446 -0.064051725
0.048566595 -0.05602452 0.056909036 -0.13621645 0.009877561 -0.08380465 -0.03308104 0.020895991
0.0021451307 -0.015057639 -0.11457354 0.05299904 0.10986645 -0.02701612 0.044950187 -0.040796876
0.030538887 0.09181751 -0.016432676 -0.01394968 0.09321682 0.062337108 -0.084234424 0.099110864
0.019179061 0.012969383 0.002289509 0.02920589 -0.04127498 -0.002321286 0.30542207 -0.029324807
-0.18711857 -0.082739316 -0.32628497 0.01591485 -0.071185134 0.13571087 0.1876378 0.037704747
0.022508172 0.016204964 -0.25501192 0.10964216 -0.037086166 0.12548208 -0.020609735 -0.03385243
0.09158659 0.04392877 0.0325012 0.013822592 -0.08959601 0.03911511 0.14439346 -0.027085409
-0.03894979 0.22683485 0.004008471 -0.0049302946 0.04113264 0.025684783 0.0316709 -0.041965384
0.012238268 -0.15417996 0.15228616 0.07096094 0.08500325 0.20640562 -0.02889226 -0.053429723
-0.0033883594 -0.13657996 0.0688982 0.042970482 0.04642785 0.03688933 -0.06274527 0.024474535
0.019500796 0.014421635 0.030317506 0.09060058 0.092099234 0.087896444 -0.0055077635 0.10824684
0.0045061163 -0.03447907 0.016019374 0.0030440753 0.006756239 -0.12181398 -0.02704609 0.14641097
0.049910676 0.13167527 0.054730322 -0.040619824 -0.0008347626 0.005232548 0.03891839 0.061470397
0.001978721 -0.24180226 0.008140377 0.0089448895 0.44692674 0.057237506 -0.15450183 -0.18957962
-0.034297764 0.04525059 0.29196602 -0.16231811 -0.24289282 0.08845694 0.028025612 0.18850659
-0.09961066 0.09019694 0.17734887 0.08176367 -0.18913516 0.15621255 -0.13633971 -0.048950177
0.41016108 0.06917592 0.082719825 -0.15341675 -0.13734117 0.011328334 -0.029300468 0.29462945
-0.019515924 0.000759269 -0.28791952 0.0976033 0.2440006 0.026209963 0.16471216 0.10066902
0.15554793 0.05368447 -0.15919724 0.13088778 -0.10731313 -0.11538505 0.10962923 0.04928325
-0.16150874 0.0039678398 -0.09608444 0.23440361 -0.2796252 0.1260512 -0.026365906 -0.10952968
00000000: daf7 803e 6b31 09bd 3944 50be a61d bf3d
00000010: 2728 d2bd ddc5 7ebd 058f 963e f7cf 973d
00000020: 2621 2bbe 0854 253e ddf8 e03d 8623 ab3d
00000030: 1865 2cbe b1a5 013e fe75 7dbd e2fc e23d
00000040: f33f be3e fb5b 8cbe 3a99 90bd 26e3 82bd
00000050: 4e55 92bd 68ad 243d 363c 4abd e22e 203e
00000060: 5689 333e c872 543c 6efb 9cbb da97 d7bd
00000070: 981b 61bd c93d 703e 49a0 5f3e 4afe e33c
00000080: c370 3d3d ebfd 45bd fbce 0dbe 9090 103c
00000090: 7af9 bc3e 13fe bbbd 3c8b 89bd 0afb 5ebe
000000a0: ec41 dbbd aa09 54bd 9df2 4c3c 1085 4e3e
000000b0: 5012 82be d08e c5bb 7d2f 413d cfdb ec3d
000000c0: 4a60 873e cd39 7b3d 7577 0c3e b9a8 0a3d
000000d0: 6a20 e43c b8c4 0f3b 960a a23c 14b2 e6bc
000000e0: 4b57 893c 2727 e23d 8531 15bc 9592 87bd
000000f0: 7369 febb 5c7f 183d dced fa3d 2dba 38bd
00000100: 7a34 0a3d 3623 c03d 47a6 063d 4a17 113d
00000110: f171 873d f43c 5abd 9ceb 51bd c0e8 2c3e
00000120: 0eb4 71bc de32 1abd 08c9 253a b9e3 233e
00000130: 1612 a43b 07bb dbbd 21a7 893b eb12 e4bd
00000140: e8e9 2c3c d30d 72bd 90a0 a13d d090 2c3e
00000150: 34bb 1c3d 4937 253d bd43 5e3d 3181 e4bd
00000160: 5a38 453d d47f 64bd 25df e93d e1d8 82bd
00000170: 3917 06bd 4ec5 ef3d f4b9 4bba 8d2d 83bd
00000180: c4ed 463d f879 65bd 7319 693d 537c 0bbe
00000190: 7ed5 213c c6a1 abbd fc7f 07bd 122e ab3c
000001a0: 5295 0c3b 51b4 76bc 88a5 eabd 8515 593d
000001b0: a901 e13d e950 ddbc b01d 383d a01a 27bd
000001c0: b02c fa3c d20a bc3d d29d 86bc 338d 64bc
000001d0: 76e8 be3d 3255 7f3d 1983 acbd a3fa ca3d
000001e0: 681d 9d3c 897d 543c 960b 163b 3141 ef3c
000001f0: f40f 29bd b720 18bb 4860 9c3e 943a f0bc
00000200: 039c 3fbe 3b73 a9bd d30e a7be dc5f 823c
00000210: 83c9 91bd caf7 0a3e 2024 403e 4b70 1a3d
00000220: 0f63 b83c 46c0 843c ec90 82be 128c e03d
00000230: aae7 17bd 607e 003e bfd5 a8bc d8a8 0abd
00000240: c091 bb3d a7ee 333d fa1f 053d 2778 623c
00000250: 1d7e b7bd 2a37 203d e1db 133e 38e2 ddbc
00000260: d189 1fbd 6547 683e 7e59 833b 4f8e a1bb
00000270: b37a 283d e568 d23c 58b9 013d e5e3 2bbd
00000280: 0483 483c 5ae1 1dbe e7f0 1b3e f853 913d
00000290: 2f16 ae3d ff5b 533e 76af ecbc 20d9 5abd
000002a0: 3d0f 5ebb 9edb 0bbe 801a 8d3d d101 303d
000002b0: 212b 3e3d 4419 173d 9880 80bd d27e c83c
000002c0: 22c0 9f3c b948 6c3c 6b5c f83c cc8c b93d
000002d0: 869e bc3d 0d03 b43d 787a b4bb 85b0 dd3d
000002e0: 0ba8 933b ed39 0dbd 103b 833c 1c7f 473b
000002f0: 7163 dd3b 9c79 f9bd c38f ddbc c2ec 153e
00000300: 236f 4c3d e2d5 063e e72c 603d f960 26bd
00000310: f8d3 5aba cb75 ab3b e468 1f3d 62c8 7b3d
00000320: 6ead 013b 039b 77be 375f 053c 968d 123c
00000330: 95d3 e43e e071 6a3d ba35 1ebe 2921 42be
00000340: d07b 0cbd af58 393d 927c 953e b836 26be
00000350: e5b8 78be ea28 b53d f895 e53c df07 413e
00000360: ac00 ccbd 2cb9 b83d f19a 353e b673 a73d
00000370: a6ac 41be 2ff6 1f3e a39c 0bbe fb7f 48bd
00000380: a200 d23e 1bac 8d3d 0369 a93d 4819 1dbe
00000390: 2aa3 0cbe 7a9a 393c 8907 f0bc acd9 963e
000003a0: dcdf 9fbc ae09 473a 306a 93be 3de4 c73d
000003b0: 4bdb 793e 47b6 d63c 4eaa 283e 8f2b ce3d
000003c0: f547 1f3e 3fe4 5b3d 9a04 23be 7207 063e
000003d0: fcc6 dbbd ff4e ecbd 4a85 e03d 3cdd 493d
000003e0: 8c62 25be a704 823b ebc7 c4bd 8007 703e
000003f0: 092b 8fbe 9113 013e 50fd d7bc 1951 e0bd

fc1.bias f4 [100]
0.050382853 0.1712021 0.08465607 0.13591474 0.29695565 -0.040546633 -0.009138856 0.12615837
0.08767238 0.04412709 0.12258837 -0.0043485006 0.05028208 0.11571905 -0.0745489 0.08649493
0.101506405 -0.013788928 -0.04422014 0.00029763635 -0.020586018 0.06522209 0.07596725 0.016277129
0.16780253 0.09280837 0.1529521 0.21749403 0.0061960663 0.10912171 0.11808625 0.14637893
0.05422913 0.06820843 0.24239363 0.04757474 0.07424886 0.26116934 0.17062467 -0.04158707
0.25155878 0.2398155 -0.021182127 0.08248186 0.17248724 0.18831202 0.04538585 0.14787869
0.096321136 -0.05637813 0.17959888 0.09942586 -0.0970053 0.10106128 0.15681584 0.020043507
0.19018914 0.1004923 0.06845527 0.024558814 -0.026797604 0.09956863 -0.007869148 -0.059891064
0.14505896 0.13518892 0.06519553 0.27280658 0.07255094 -0.009847565 0.15547378 0.16934595
0.008448168 -0.055802282 0.27265123 0.045436032 0.27226537 -0.0052188816 0.07196734 0.024602992
0.066554874 0.21911779 0.107701175 0.14040175 0.046026528 -0.012607961 0.2278305 0.004349413
0.17500839 0.13878772 0.042760417 0.007313057 0.1392812 0.12576191 0.03391533 0.08560994
-0.05374252 0.22371891 0.01343995 -0.07279467
00000000: 405e 4e3d 9a4f 2f3e 2960 ad3d 3c2d 0b3e
00000010: 920a 983e 3a14 26bd 24bb 15bc a92f 013e
00000020: 948d b33d 9cbe 343d 9d0f fb3d de7d 8ebb
00000030: 95f4 4d3d 1cfe ec3d 18ad 98bd 4124 b13d
00000040: 97e2 cf3d f5ea 61bc 2d20 35bd 130c 9c39
00000050: 02a4 a8bc 2993 853d b894 9b3d 9d57 853c
00000060: 6dd4 2b3e 5112 be3d 7a9f 1c3e c1b6 5e3e
00000070: 5f08 cb3b 347b df3d 34d7 f13d 5ce4 153e
00000080: 5d1f 5e3d ddb0 8b3d 0936 783e bbdd 423d
00000090: c90f 983d fdb7 853e 3cb8 2e3e 3457 2abd
000000a0: 50cc 803e 3292 753e 2486 adbc 40ec a83d
000000b0: 7fa0 303e ded4 403e 83e6 393d 836d 173e
000000c0: 0444 c53d c1ec 66bd c5e8 373e c99f cb3d
000000d0: b7aa c6bd 37f9 ce3d 5594 203e 4832 a43c
000000e0: f1c0 423e e8ce cd3d 4732 8c3d 912f c93c
000000f0: a686 dbbc a3ea cb3d 99ed 00bc 5550 75bd
00000100: 568a 143e f76e 0a3e 3c85 853d 4ead 8b3e
00000110: 9695 943d ae57 21bc 8534 1f3e 0669 2d3e
00000120: 2f6a 0a3c ef90 64bd f198 8b3e 221b 3a3d
00000130: 5e66 8b3e 2703 abbb 9d63 933d 378c c93c
00000140: ec4d 883d 6a60 603e 6f92 dc3d 7ac5 0f3e
00000150: 5086 3c3d 9f91 4ebc 664c 693e 8585 8e3b
00000160: 6635 333e 5e1e 0e3e 8c25 2f3d 5ea2 ef3b
00000170: bb9f 0e3e bbc7 003e cdea 0a3d 4454 af3d
00000180: 1e21 5cbd 9216 653e 3c33 5c3c 5f15 95bd

fc2_1.weight f4 [12, 100]
0.23235582 0.07278104 -0.02596728 0.2186724 0.55018044 -0.1579679 0.1219162 0.09140496
-0.03820662 -0.029730055 0.2626707 -0.034011662 -0.22648059 0.16242218 -0.057914052 0.36169717
-0.196831 0.06998271 -0.074864805 -0.056531664 -0.1689778 0.090289816 -0.1381717 -0.056155488
0.13400485 0.3361289 0.21693228 0.010762274 -0.11953731 0.4856857 0.24958333 -0.30516148
-0.116105534 -0.27315003 0.028055582 0.26485455 -0.00071508077 0.1937939 0.03788005 -0.14741433
0.17821252 0.16404031 0.080058396 -0.1083149 -0.21786693 -0.45015505 0.010681891 0.3370321
-0.16749738 -0.0920304 -0.14013733 -0.18068048 0.049522534 -0.0117207775 0.15095155 -0.111231424
0.2210913 0.39165124 0.20219912 0.24550238 -0.012949243 -0.15880658 -0.17992555 -0.06688859
-0.29554725 0.18998764 -0.09285324 -0.09584918 -0.16779777 -0.15719967 -0.116277106 -0.08324099
-0.00176409 -0.054330874 0.2823845 -0.20910248 0.1245656 -0.17118657 -0.186409 -0.23633233
-0.16771357 -0.039995622 0.32792792 -0.08391112 -0.16385008 0.0045039803 0.39417672 -0.079357855
0.13944374 -0.20231949 -0.07957347 -0.16793297 0.09493024 -0.18684275 -0.075847074 -0.032809447
-0.15890718 0.3637216 0.06659716 -0.13159412 -0.23817497 -0.049885083 -0.10362771 0.06535826
-0.11372917 -0.10095163 -0.038454786 -0.21566842 -0.16185158 -0.08458878 0.16129662 -0.2671929
-0.25301406 -0.2553272 0.018146455 -0.12023909 0.16387247 -0.11460483 0.1925659 -0.15997617
0.044000294 -0.24884777 -0.10446342 0.37630594 0.22648121 0.10326002 -0.045475286 0.14138444
-0.11570101 0.24500836 -0.06856698 0.0781695 0.091450065 -0.020765867 -0.1998128 -0.14169799
-0.062059 -0.012926307 0.2451463 0.10078225 0.13423792 0.1105568 0.0436845 -0.21248285
-0.15546393 0.25345665 -0.17528534 -0.06913965 -0.17814209 -0.003928244 0.110922195 0.047034506
0.01857287 -0.053414665 -0.15265846 -0.11396613 -0.17696357 0.20081636 -0.19187833 0.19914323
-0.09736854 -0.2051134 -0.15607175 -0.059381913 0.2805188 0.04435153 -0.032425813 0.61643964
-0.17949328 -0.042169623 0.03128715 -0.18164031 0.008431438 -0.012063716 -0.23742753 -0.12360685
-0.030958366 0.22237727 0.08459689 -0.03374793 0.07485906 0.282814 0.18984325 0.27998048
-0.13049045 -0.13574578 0.07677374 -0.055588383 0.045187816 -0.14650366 -0.120012395 -0.15977615
0.14751577 0.028850079 -0.12387259 0.3040626 0.24548166 -0.0924976 -0.14378588 0.03680499
-0.10056554 -0.08276941 0.008115077 -0.18200603 -0.2438663 -0.067015916 -0.12159498 -0.08635098
-0.016492559 -0.02722747 0.08829376 0.095553145 0.37372312 -0.08793318 -0.098585606 -0.10079235
-0.18219696 -0.17856151 -0.19991957 -0.08550611 -0.191792 -0.276914 0.37578967 -0.077558644
0.26444545 -0.0722742 0.13943179 0.063706435 -0.15935922 -0.118230455 0.10093896 -0.0057981703
-0.036625743 -0.07385095 0.32644576 -0.11539142 -0.13598295 0.21393293 0.31638995 0.08035158
0.084684245 0.31587246 -0.06678744 0.45427334 -0.018426957 0.18018089 -0.22412582 0.0041795336
0.19244201 -0.11439994 -0.16468032 -0.16043237 -0.19365111 -0.20650063 -0.16764924 -0.16094507
00000000: afee 6d3e 3a0e 953d 55b9 d4bc a8eb 5f3e
00000010: a0d8 0c3f 56c2 21be 33af f93d 8632 bb3d
00000020: 8b7e 1cbd 728c f3bc c67c 863e d04f 0bbd
00000030: 87ea 67be 0052 263e 4937 6dbd 5f30 b93e
00000040: 118e 49be 1853 8f3d b852 99bd bf8d 67bd
00000050: 8408 2dbe dee9 b83d e27c 0dbe 4c03 66bd
00000060: 9138 093e 1619 ac3e 7f23 5e3e 4054 303c
00000070: facf f4bd ccab f83e c692 7f3e 203e 9cbe
00000080: bdc8 edbd 52da 8bbe d2d4 e53c 049b 873e
00000090: 4274 3bba e871 463e 1c28 1b3d c8f3 16be
000000a0: 587d 363e 2ffa 273e a8f5 a33d 34d4 ddbd
000000b0: 8218 5fbe b97a e6be 1903 2f3c 798f ac3e
000000c0: 6f84 2bbe 6f7a bcbd 2980 0fbe 4e04 39be
000000d0: 24d8 4a3d 8108 40bc 0b93 1a3e 4dcd e3bd
000000e0: c265 623e 8386 c83e 490d 4f3e fa64 7b3e
000000f0: 1029 54bc 319e 22be 673e 38be e3fc 88bd
00000100: f851 97be 1f8c 423e d729 bebd 934c c4bd
00000110: 2ed3 2bbe f3f8 20be b122 eebd 417a aabd
00000120: 0a39 e7ba 0d8a 5ebd b494 903e f61e 56be
00000130: 401c ff3d 884b 2fbe 00e2 3ebe 1a01 72be
00000140: 1bbd 2bbe 73d2 23bd 2be6 a73e 98d9 abbd
00000150: 51c8 27be 2096 933b 88d1 c93e 5f86 a2bd
00000160: 57ca 0e3e d72c 4fbe 6af7 a2bd 9ff6 2bbe
00000170: c96a c23d b553 3fbe b655 9bbd 3363 06bd
00000180: 90b8 22be b839 ba3e 1864 883d 9cc0 06be
00000190: 24e4 73be 4d54 4cbd c43a d4bd 8dda 853d
000001a0: d7ea e8bd babf cebd c482 1dbd 2fd8 5cbe
000001b0: 6cbc 25be e23c adbd f12a 253e 82cd 88be
000001c0: 0f8b 81be 3fba 82be e0a7 943c e93f f6bd
000001d0: 2fce 273e f0b5 eabd ff2f 453e cbd0 23be
000001e0: a739 343d f3d1 7ebe ebf0 d5bd 2cab c03e
000001f0: b1ea 673e fd79 d33d 4b44 3abd 15c7 103e
00000200: a7f4 ecbd 79e3 7a3e d86c 8cbd 5517 a03d
00000210: 2c4a bb3d 2e1d aabc ba9b 4cbe 4719 11be
00000220: 9431 7ebd dcc8 53bc a207 7b3e ed66 ce3d
00000230: aa75 093e 9b6b e23d 85ee 323d 1b95 59be
00000240: f031 1fbe 12c5 813e 007e 33be 1799 8dbd
00000250: e16a 36be 80b8 80bb 2d2b e33d 41a7 403d
00000260: 2226 983c 56c9 5abd 8052 1cbe 1367 e9bd
00000270: f035 35be cea2 4d3e c17b 44be 34ec 4b3e
00000280: 2869 c7bd 3f09 52be 46d1 1fbe 733a 73bd
00000290: 29a0 8f3e f3a9 353d eed0 04bd fdce 1d3f
000002a0: 16cd 37be 0eba 2cbd f426 003d ebff 39be
000002b0: 0424 0a3c e4a6 45bc 3420 73be 9725 fdbd
000002c0: 669c fdbc deb6 633e 2241 ad3d 453b 0abd
000002d0: b54f 993d ffcc 903e 4566 423e 9a59 8f3e
000002e0: 4a9f 05be f100 0bbe 8d3b 9d3d a5b0 63bd
000002f0: dc16 393d 0e05 16be 0fc9 f5bd 5c9c 23be
00000300: 600e 173e 0057 ec3c eab0 fdbd 18ae 9b3e
00000310: 8b5f 7b3e 626f bdbd 9b3c 13be d4c0 163d
00000320: 4ef5 cdbd 0283 a9bd 1af5 043c ca5f 3abe
00000330: 16b8 79be a43f 89bd ca06 f9bd c8d8 b0bd
00000340: 671b 87bc 250c dfbc 5cd3 b43d 5eb1 c33d
00000350: a358 bf3e 5016 b4bd 40e7 c9bd 386c cebd
00000360: d791 3abe d4d8 36be b7b7 4cbe d41d afbd
00000370: 1f65 44be acc7 8dbe 8167 c03e 11d7 9ebd
00000380: 6565 873e 7f04 94bd 35c7 0e3e 8578 823d
00000390: 102f 23be cf22 f2bd 16b9 ce3d 94fe bdbb
000003a0: e004 16bd 2b3f 97bd e623 a73e 5652 ecbd
000003b0: 1d3f 0bbe 3c11 5b3e ddfd a13e 5f8f a43d
000003c0: ef6e ad3d 09ba a13e dac7 88bd 8496 e83e
000003d0: 21f4 96bc 5781 383e 3d81 65be 78f4 883b
000003e0: 850f 453e 844a eabd f5a1 28be 6248 24be
000003f0: 7a4c 46be e774 53be 3eac 2bbe c9ce 24be

fc2_1.bias f4 [12]
0.045070946 0.0032094638 0.050268345 0.078740515 0.009999014 0.0105776135 0.00075827003 -0.056743138
0.001004052 -7.854756e-05 -0.057561863 -0.08576556
00000000: 509c 383d de55 523b 2ee6 4d3d b542 a13d
00000010: e8d2 233c ba4d 2d3c a4c6 463a 7e6b 68bd
00000020: 659a 833a e6b9 a4b8 fdc5 6bbd dba5 afbd

fc2_2.weight f4 [7, 100]
-0.37303266 0.18063176 0.21699105 0.023329068 0.37282786 -0.18832734 -0.18562679 -0.07776362
-0.30379167 -0.18832895 0.14111425 0.32135934 -0.07295252 0.08064611 -0.21879171 -0.04710024
-0.295114 -0.0021417546 -0.037466258 -0.2774871 -0.24464414 0.5146549 0.1386468 0.12254929
-0.09373751 -0.041942455 0.028893212 0.027494984 -0.20578447 -0.18207349 0.17520952 0.34156427
-0.5175073 -0.24387728 -0.44374028 0.2495564 -0.037606593 0.27673376 0.09473139 0.14899762
0.16389406 0.31404713 -0.045603547 0.16221425 -0.10443078 0.23535025 0.29656932 -0.5140058
-0.01535519 -0.11037328 0.012209199 -0.22269055 -0.10943578 -0.056252327 -0.26865742 -0.037493672
0.11098665 0.2740222 0.2524503 -0.123753086 0.049859345 0.22999741 0.021473993 -0.08492771
0.24838255 0.06455958 0.048946492 -0.5146724 -0.1996949 0.11713778 0.058368016 0.11834646
0.004247517 0.026527766 0.34197262 0.071242236 0.16083044 -0.07278817 -0.26615575 -0.18306993
0.2417611 0.22803532 0.052391052 -0.34154946 0.057014186 0.17970625 0.22148116 -0.122646466
0.10435843 -0.18517654 0.043053977 -0.13338397 0.18015777 0.14805567 0.14661065 -0.5388834
0.1336301 0.15424268 0.07714977 0.013710575 -0.05380483 -0.039421637 -0.035803292 -0.05324455
-0.06177445 -0.0435408 -0.033648636 -0.050365407 -0.03527252 -0.018786458 -0.043014877 -0.057022095
-0.05006944 -0.055066492 -0.04419345 -0.036946584 -0.05340765 -0.05303677 -0.0740087 -0.045996696
-0.048656464 -0.06401172 -0.0319695 -0.0773399 -0.057597805 -0.036823325 -0.030238947 -0.06858172
-0.04388437 -0.048800774 -0.028860288 -0.05419361 -0.049419917 -0.05004922 -0.04374845 -0.048694715
-0.06402294 -0.06070098 -0.048035484 -0.04556637 -0.06390532 -0.05445651 -0.02822543 -0.04596142
-0.04912398 -0.08452111 -0.048833653 -0.06159211 -0.054597236 -0.032061774 -0.056847464 -0.05313821
-0.04903096 -0.038031284 -0.04140353 -0.038453218 -0.043097675 -0.077215284 -0.05226151 -0.04698982
-0.043854326 -0.042084914 -0.049341872 -0.03942441 -0.04921002 -0.043882877 -0.026934806 -0.059238512
-0.045259632 -0.037790813 -0.053974174 -0.03685164 -0.0029628738 -0.0361857 -0.05267013 -0.05657564
-0.06233546 -0.04687805 -0.047239866 -0.049045604 -0.063559964 -0.05625213 -0.0645443 -0.050528385
-0.047353342 -0.04835242 -0.06924024 -0.034889217 -0.058003154 -0.042665996 -0.035514094 -0.047300503
-0.04399008 -0.0396093 -0.049302407 -0.09624932 -0.06936315 -0.062171955 -0.049399372 -0.040746868
-0.12300894 -0.10392292 -0.010839815 -0.04177425 -0.46522194 0.3241361 0.06580834 -0.011552527
0.37535018 0.26973882 -0.14753452 0.5269904 0.25764513 0.2041602 0.28258038 -0.29084963
0.18669513 0.302003 -0.40087098 0.17044099 0.26964068 0.11733593 -0.014176866 0.421655
0.3392798 -0.034123074 -0.31984138 -0.3308287 0.28243887 0.0564734 -0.048504576 -0.08481651
0.03685519 0.23365413 0.634692 0.056325156 -0.8537117 -0.14854449 -0.15800452 0.40986738
-0.33176246 -0.079686634 0.10841506 0.0328599 -0.27505544 -0.4283706 0.09344923 0.24534155
0.042892024 0.18489125 -0.45653674 0.13816394 0.36130765 0.16639781 -0.63872087 0.0015086691
00000000: 23fe bebe 88f7 383e e732 5e3e 9a1c bf3c
00000010: 4be3 be3e e2d8 40be f314 3ebe 8842 9fbd
00000020: 958a 9bbe 4ed9 40be 4180 103e 3689 a43e
00000030: 2168 95bd ca29 a53d ef0a 60be 2eec 40bd
00000040: 2f19 97be ae5c 0cbb 3876 19bd ca12 8ebe
00000050: fe83 7abe 6cc0 033f 6df9 0d3e 1ffb fa3d
00000060: 74f9 bfbd dacb 2bbd 75b1 ec3c 293d e13c
00000070: 2ab9 52be 7971 3abe 206a 333e 83e1 ae3e
00000080: 5c7b 04bf f7ba 79be ed31 e3be b78b 7f3e
00000090: 5f09 1abd 0cb0 8d3e 8802 c23d d592 183e
000000a0: d8d3 273e c9ca a03e c9ca 3abd 7e1b 263e
000000b0: cedf d5bd a8ff 703e efd7 973e e295 03bf
000000c0: 5694 7bbc 630b e2bd 1809 483c fe08 64be
000000d0: de1f e0bd d768 66bd 778d 89be f792 19bd
000000e0: f84c e33d a34c 8c3e 2a41 813e 4272 fdbd
000000f0: 5039 4c3d 7184 6b3e 3aea af3c 94ee adbd
00000100: ff57 7e3e d037 843d 1e7c 483d 92c1 03bf
00000110: d27c 4cbe efe5 ef3d 4d13 6f3d a15f f23d
00000120: c12e 8b3b c250 d93c 0917 af3e 73e7 913d
00000130: bcb0 243e f711 95bd 9145 88be af76 3bbe
00000140: 3990 773e 1782 693e 0098 563d 92df aebe
00000150: b587 693d ea04 383e f5cb 623e 122e fbbd
00000160: dfb9 d53d eb9e 3dbe 5e59 303d cf95 08be
00000170: 477b 383e e89b 173e 1a21 163e 43f4 09bf
00000180: 54d6 083e cbf1 1d3e b300 9e3d 52a2 603c
00000190: 7462 5cbd 9578 21bd 79a6 12bd f516 5abd
000001a0: 3507 7dbd d757 32bd 27d3 09bd f54b 4ebd
000001b0: eb79 10bd 0fe6 99bc 5e30 30bd 0090 69bd
000001c0: 9d15 4dbd 678d 61bd 3104 35bd 4d55 17bd
000001d0: fbc1 5abd 163d 59bd e091 97bd 0867 3cbd
000001e0: 004c 47bd 9418 83bd 73f2 02bd 6264 9ebd
000001f0: adeb 6bbd 0ed4 16bd abb7 f7bc 9374 8cbd
00000200: 19c0 33bd 52e3 47bd 696c ecbc 1efa 5dbd
00000210: 8a6c 4abd 6900 4dbd 9331 33bd 1c74 47bd
00000220: 761e 83bd 97a1 78bd dbc0 44bd cda3 3abd
00000230: cbe0 82bd ca0d 5fbd 0439 e7bc 0b42 3cbd
00000240: 3a36 49bd 6719 adbd cc05 48bd 0248 7cbd
00000250: 5aa1 5fbd 3553 03bd e3d8 68bd 74a7 59bd
00000260: b0d4 48bd b1c6 1bbd bf96 29bd 1f81 1dbd
00000270: 3087 30bd 0c23 9ebd 2a10 56bd 6678 40bd
00000280: 98a0 33bd 3b61 2cbd b41a 4abd 7d7b 21bd
00000290: 7290 49bd 88be 33bd 62a6 dcbc 15a4 72bd
000002a0: 2a62 39bd 8aca 1abd 0614 5dbd bff1 16bd
000002b0: c62c 42bb 7537 14bd a2bc 57bd dcbb 67bd
000002c0: 7853 7fbd 3303 40bd 977e 41bd 0be4 48bd
000002d0: ba2b 82bd a268 66bd cd2f 84bd daf6 4ebd
000002e0: 94f5 41bd 300d 46bd d4cd 8dbd ffe7 0ebd
000002f0: b794 6dbd 8ac2 2ebd 3a77 11bd 2cbe 41bd
00000300: f12e 34bd 5d3d 22bd 52f1 49bd 5d1e c5bd
00000310: 440e 8ebd 05a8 7ebd ff56 4abd 30e6 26bd
00000320: 1cec fbbd 8ad5 d4bd 7b99 31bc 7a1b 2bbd
00000330: 9231 eebe 2bf5 a53e 86c6 863d cf46 3dbc
00000340: e62d c03e 351b 8a3e 4a13 17be d8e8 063f
00000350: 10ea 833e 5f0f 513e 60ae 903e 3eea 94be
00000360: 022d 3f3e 23a0 9a3e f63e cdbe 1588 2e3e
00000370: 580e 8a3e d24d f03d 1646 68bc 2ae3 d73e
00000380: 15b6 ad3e a3c4 0bbd 40c2 a3be 6162 a9be
00000390: d49b 903e a750 673d bcac 46bd 47b4 adbd
000003a0: 78f5 163d 0743 6f3e 2d7b 223f 35b5 663d
000003b0: da8c 5abf 0c1c 18be f0cb 21be 23da d13e
000003c0: c5dc a9be bf32 a3bd b708 de3d 1a98 063d
000003d0: 11d4 8cbe 6453 dbbe 4f62 bf3d d13a 7b3e
000003e0: 8caf 2f3d 2254 3d3e 2fbf e9be d97a 0d3e
000003f0: 51fd b83e 3064 2a3e 3683 23bf 89be c53a

fc2_2.bias f4 [7]
0.06417265 -0.12673858 -0.06359716 -0.013346378 -0.04402973 0.23240127 -0.03640696
00000000: f36c 833d c2c7 01be 3a3f 82bd c4aa 5abc
00000010: 8558 34bd 99fa 6d3e 771f 15bd
