Assets/Models/NNBaseline1/MoveAction.onnx (onnx, 42559 bytes, 6 tensors)

fc1.weight f4 [100, 51]
000000 5d 57 df bd 65 f6 44 3e 17 01 d5 bd d5 85 43 be
       -0.10905335 0.19234617 -0.104005985 -0.19094022
000010 e2 c5 ea bc 28 ec 87 3e c7 2d 1d 3e c7 cb 09 be
       -0.028658811 0.2654736 0.15349494 -0.13456641
000020 8f 8e 43 be 79 c5 8b 3e ae c9 d5 bd b2 4d 89 be
       -0.1909735 0.27299097 -0.10438858 -0.2681709
000030 40 1d 4e 3e 29 a2 a0 be d9 64 7e bd 44 5d aa 3e
       0.20128345 -0.31373718 -0.062107895 0.3327428
000040 35 f2 13 bd 83 e4 0e 3e 3f 52 1c 3f 34 22 24 bb
       -0.03611966 0.13954358 0.61063 -0.00250448
000050 87 cd 9c 3e bb 81 87 be 5a 0c 34 3d 43 8e 88 3c
       0.30625555 -0.26466164 0.043957092 0.016669398
000060 64 67 2f be bc e2 13 be 1d b1 4a 3e 0b e1 82 3d
       -0.17129284 -0.14441961 0.19794126 0.0639058
000070 d4 2e b3 3d 38 a6 97 3e 97 42 da be f2 6d 9c 3e
       0.08749166 0.29619002 -0.4262893 0.30552632
000080 43 c8 f0 3c 78 6e 95 be 4d 33 b5 3d 06 41 e8 3e
       0.029392367 -0.29185843 0.088476755 0.4536211
000090 fb e3 75 3a f8 58 6b be 94 cb 1d bd 6d 5c cb 3e
       0.000937998 -0.22983158 -0.038524225 0.39718953
0000a0 20 e9 2e be 81 8a 8b 3e fb d1 4b be 19 c0 ab be
       -0.17081118 0.27254108 -0.1990432 -0.33544996
0000b0 88 7b 34 bd dd 94 ea bd 6e cc 4f 3d de d7 0a bd
       -0.04406312 -0.11454175 0.05073207 -0.033897273
0000c0 0a 4f c8 be 6a f2 af 3e dc c4 ab 3d ac d9 a0 3d
       -0.39122802 0.34364635 0.08387157 0.078540176
0000d0 91 aa eb 3c ab 18 e7 3c 6a 18 99 bd d6 84 c0 3b
       0.028767856 0.028210005 -0.0747536 0.0058752103
0000e0 10 2c 9f 3d c1 f2 63 3c 89 82 12 3e e1 f8 0b bc
       0.07772076 0.0139128575 0.14307608 -0.008543224
0000f0 2c 24 e0 3c b5 db 51 3b a6 32 1e bc 96 45 bb bd
       0.027360998 0.0032021825 -0.00965563 -0.09144132
000100 8c a6 fa bc f8 62 6b 3d 03 20 01 3d 4a 16 b3 3d
       -0.030596994 0.05746743 0.03152467 0.08744486
000110 c9 17 10 3d 08 95 22 be 92 63 81 3d 67 02 02 bc
       0.035178933 -0.15877163 0.0631782 -0.007935143
000120 0f b3 0e 3d 87 e0 08 3e 07 a2 27 bd 08 27 6c 3d
       0.034838732 0.133669 -0.040926006 0.05765441
000130 84 3f 3b 3d e4 83 94 bc 38 b3 07 bd c3 b1 28 bd
       0.04571487 -0.018129297 -0.0331299 -0.04118515
000140 c9 76 65 bd 35 25 83 3d 39 7a 7b 3d d6 03 07 bc
       -0.056021485 0.06403581 0.061395857 -0.008240661
000150 9a f3 a8 bd 0e ec e2 3d c8 28 3d 3d 22 3b 4d bc
       -0.08249588 0.1108018 0.04618147 -0.012526305
000160 1c bb b5 3d 48 5b 70 bd 23 5d 59 bd 06 50 07 3d
       0.08873579 -0.058680803 -0.053067338 0.0330353
000170 6f 9c 4c bd 50 97 ca 3d 55 0a 54 3d f3 6b cd 3c
       -0.049953874 0.09892142 0.051767666 0.025075888
000180 66 8a 8b 3b 86 75 6d bd 30 44 f0 3b 0e c7 fa bc
       0.0042584417 -0.057973407 0.0073323473 -0.030612495
000190 8e 26 09 bc 84 e1 a4 3d 3e 33 37 bc fb 4a 56 bd
       -0.008371009 0.08050826 -0.011181651 -0.0523176
0001a0 0a bb bd 3e c7 a7 ea bc 3d bf 7a 3d f3 05 9d be
       0.37056762 -0.028644456 0.061217535 -0.306686
0001b0 a0 d3 91 3d 3e 3a ba bd 8b 10 14 bd 88 93 46 3d
       0.071204424 -0.0909314 -0.03614859 0.04848054
0001c0 79 ab 24 3e 03 2d 88 3e bd d3 84 3e 3c 93 b3 bd
       0.16081037 0.2659684 0.25942793 -0.08768317
0001d0 0f a2 6c 3d ef c0 22 bd fb 55 98 bd 1e b6 f1 bb
       0.05777174 -0.039734777 -0.074382745 -0.0073764464
0001e0 27 38 73 3d a7 ea 85 bd f6 7d 42 3b 6f 45 8a 3d
       0.059379723 -0.06538897 0.002967713 0.06751525
0001f0 ba fb 98 bd e4 69 eb bd f6 7c 2f 3e ad 52 e0 3d
       -0.07469888 -0.114948064 0.17137513 0.10953269
000200 3f 6b 0c 3d 37 d2 bc bd 54 ed e6 3c fd b7 1e be
       0.034281965 -0.09219783 0.028189339 -0.15499873
000210 c7 3d da 3d fa c8 b8 bd 10 68 f1 bd 4e cc 05 be
       0.10656314 -0.09022708 -0.117874265 -0.13066217
000220 45 da 8f 3d 03 a0 25 3e ba 5d e6 32 3f dd a0 3d
       0.070240535 0.16174321 2.6818146e-08 0.07854699
000230 e0 ca 96 be 31 ec 9d 3d d2 ec 25 3e 74 a0 c3 3d
       -0.29451656 0.077110656 0.16203621 0.095520884
000240 f5 4f 80 be a7 f2 a5 3c ed 54 32 be c0 28 1d bd
       -0.25061002 0.020257307 -0.17415209 -0.03836894
000250 54 02 40 3d 80 a5 01 3e 78 2b 25 3f 5a db 38 bd
       0.04687722 0.1266079 0.64519453 -0.045131065
000260 db 77 4e bc 65 65 30 bd cf 7d 60 bd 21 02 62 3d
       -0.012601818 -0.043065447 -0.05480748 0.05517781
000270 9b 6c b9 3e a8 f9 76 bc 80 3c 39 be ab 94 bf 3d
       0.36215672 -0.015074171 -0.18089485 0.09354528
000280 fc 1d e3 bd e7 5f d4 bd 77 6e 5b 3d 38 73 3d 3e
       -0.110897034 -0.103698544 0.053572144 0.18500984
000290 23 fc 59 bd 29 51 8f 3e 2c 09 3a be 33 29 25 3e
       -0.053218972 0.27991608 -0.18167561 0.16128998
0002a0 62 9f b5 3d b2 fb f6 3d 78 7f bf be 07 98 3c 3e
       0.088682905 0.12059726 -0.37401938 0.18417369
0002b0 a7 d5 98 bd 74 8e 6d bd 1e fd c0 3d 7f 06 25 3d
       -0.07462626 -0.057997182 0.09423278 0.0402894
0002c0 bd 86 b5 be 9e b5 7e 3e 0c c3 2d 3d 3c 56 c4 bd
       -0.3545436 0.24873969 0.04242234 -0.095867604
0002d0 af c9 2a be c7 db 54 3d 9a 20 72 3d f3 82 2d 3e
       -0.16678499 0.05196741 0.059113123 0.16944484
0002e0 cd d5 3f be fc 30 7a be f0 22 29 be be 79 46 3e
       -0.18733902 -0.24432749 -0.16517234 0.19382378
0002f0 11 32 e2 3c 46 97 95 b2 69 26 83 be fe 36 84 3e
       0.027611764 -1.7414674e-08 -0.25615242 0.25823206
000300 62 4e 15 be b4 14 6c 3e f6 02 d3 3d 8d 27 cb be
       -0.14580682 0.23054773 0.10303299 -0.39678612
000310 f8 a6 59 bc 61 2e bd bd cb 89 4c 3d a1 10 56 3e
       -0.013284437 -0.09237362 0.049936097 0.20904781
000320 ff ff 06 bd 25 28 c7 3e 76 58 8d bd 61 3f 84 be
       -0.03295898 0.38897815 -0.06901638 -0.25829604
000330 ca 9e 92 bd b5 ca 02 bd 15 e2 e1 bc c7 b4 a6 3d
       -0.07159193 -0.031931598 -0.027573625 0.08139949
000340 2d ff 88 33 a3 fd b2 bd 6f bb 45 3a e0 5d 22 3e
       6.37941e-08 -0.087397836 0.00075428834 0.15856123
000350 fa 1f 83 3d eb d5 29 bd 75 88 6c 3d dc 4c 86 3d
       0.064025834 -0.041463774 0.057747323 0.065576285
000360 6e 5d d9 3c 57 67 94 bd 38 c5 48 3d 63 56 15 bd
       0.026533809 -0.07246273 0.049016207 -0.036459338
000370 fc 5c 30 3d 56 d2 e0 bd 7c 31 67 3e fc 9a 51 3e
       0.043057427 -0.109776184 0.2257747 0.20469278
000380 8c 37 8b bd 9a 89 52 3e 9f a0 42 3d 8c 9d b9 3d
       -0.06797704 0.20560303 0.04751646 0.09063253
000390 d0 fb 27 be 86 9b 93 be 7f 8f d1 3c 37 83 b2 bb
       -0.16404653 -0.28829592 0.02558112 -0.005447771
0003a0 22 1e 45 3d 24 52 28 bd 6a ef 00 be 3f 46 69 be
       0.04812444 -0.04109396 -0.12591329 -0.22780703
0003b0 2c 37 d1 bc 93 60 37 3e 88 d5 c2 bc 0b c6 6e 3d
       -0.025539003 0.17907934 -0.02378346 0.058294337
0003c0 1e 53 51 32 ed eb d2 3c 4a 5b 39 3e 42 bd 89 3d
       1.21843e-08 0.025747264 0.1810123 0.06725551
0003d0 a3 b9 32 be bc 61 29 3e 60 16 8e 3d 1d 5d ba bd
       -0.17453627 0.16541189 0.069378614 -0.09099791
0003e0 49 0f b4 3d db 7c 00 be 9a b5 96 3d fc ca 14 3c
       0.08791978 -0.12547629 0.073588565 0.009081598
0003f0 99 25 58 3d b1 29 2c 3d 11 fa 25 3e 19 55 1b bd
       0.05277023 0.042031948 0.16208674 -0.037922952

fc1.bias f4 [100]
000000 98 db c8 3d dc c1 38 bb 40 a3 2e be 38 e3 8e bc
       0.09807509 -0.002819172 -0.17054462 -0.01744233
000010 fa 63 44 ba 53 f2 bc 3d 94 03 d8 3e 74 ad 78 3e
       -0.00074917043 0.09225907 0.4219023 0.24284917
000020 ad fa fc 3d 94 51 19 3e 78 d7 0a 3d 61 22 0c bc
       0.123525 0.14972526 0.033896893 -0.008553118
000030 6f c1 e5 bb e4 36 a0 3d 81 5e 22 3e 95 ec c1 3d
       -0.0070115845 0.078229696 0.15856363 0.094689526
000040 5d d5 b2 bb a9 37 92 3c 9d d3 0c 3e 4b 63 e4 bc
       -0.005457564 0.017848806 0.13752599 -0.027879378
000050 01 8b 8d 3d c9 bf 71 bd e6 80 46 bc b1 7b b0 bd
       0.069112785 -0.05902079 -0.012115693 -0.08617342
000060 e3 fe db bc 8b b3 9c bd 6e 02 12 be cf c1 66 3e
       -0.026854938 -0.076514326 -0.1425874 0.2253487
000070 28 4a f4 bc a7 19 c0 bd 81 a6 c6 3e 18 cc d2 bd
       -0.029820517 -0.09379893 0.38798907 -0.10292834
000080 ae d5 be 3d d4 26 92 bd 0c da 6b bc f7 91 e2 3d
       0.093181 -0.07136312 -0.014395248 0.11062997
000090 c5 b8 c5 3d 8d 7f fa 3d 16 2a 0d bd 16 10 d1 3c
       0.096543826 0.1223136 -0.034463964 0.025520366
0000a0 37 49 da 3d 7e 66 4e 3e 86 90 77 ba 90 55 00 be
       0.10658496 0.20156285 -0.0009443838 -0.1253264
0000b0 c4 d2 76 3b ec 2f b0 3d cd 41 ae 3d 7e 1e 12 be
       0.0037662247 0.0860289 0.08508644 -0.14269444
0000c0 01 70 25 be c2 24 25 3e a3 58 82 3d 8c 0b 08 3e
       -0.16156007 0.16127303 0.06364562 0.13285655
0000d0 a7 e2 bc ba c5 13 e0 bd 51 1c 6f 3d c9 63 5b bc
       -0.0014410809 -0.10941271 0.058376614 -0.01339049
0000e0 fe 1a 95 3e 10 ee 91 3d b5 fa a0 3e 32 96 eb 3d
       0.29122156 0.07125485 0.31441274 0.11503257
0000f0 bb 65 ce bd 75 e4 81 bd 88 bf d7 3d 5f 66 29 3d
       -0.10077997 -0.06342403 0.105345786 0.041357394
000100 81 90 33 3e da 99 b9 3d 99 16 20 bb de 11 96 bd
       0.17535593 0.09062548 -0.0024427532 -0.07327627
000110 d8 93 44 3e 30 d9 ed bc ad bb a8 3d 92 5c 66 3c
       0.19197023 -0.029034227 0.08238921 0.014060156
000120 a3 ba 8a 3e 04 07 fb bd c5 82 5f 3e d7 c8 7b 3e
       0.27095518 -0.122571975 0.21827228 0.24588333
000130 31 08 cc 3d 32 b5 40 bc 86 5b a5 bc 37 8d 85 3e
       0.099625 -0.01176195 -0.020185243 0.260843
000140 04 19 8a 3e 7a fc 55 bd b9 ab b3 3d e0 a6 37 3e
       0.2697221 -0.052242734 0.08772988 0.17934752
000150 10 c9 ed bd 28 4e 88 3c 08 35 36 3d 57 03 39 bd
       -0.11610615 0.01663883 0.04448417 -0.0451692
000160 83 9e cf 3b 3a 17 91 3e 32 2f 64 3d d2 eb df 3d
       0.0063360347 0.28338033 0.05570907 0.10933651
000170 ab d6 80 3d e2 db 4a be cd 25 41 be e7 c3 3c 3e
       0.06290945 -0.19810441 -0.18862076 0.18434106
000180 8a 05 aa bd 74 28 92 bd 90 3e 3a 3d 88 5a 00 3e
       -0.08301838 -0.07136622 0.04546982 0.12534535

fc2_1.weight f4 [12, 100]
000000 3d ac 94 be cb 3e b0 3c 35 2f b3 3d f3 7f 92 be
       -0.29037657 0.021514317 0.087492384 -0.28613243
000010 51 93 9f 3e 6b da 8c 3e 36 66 03 3e a3 c7 93 3e
       0.3116708 0.2751039 0.12831959 0.28863248
000020 3f 11 44 be 0c d1 f3 3e 3a 5e e1 3e cf f9 da bd
       -0.19147204 0.47620428 0.44017202 -0.106921785
000030 f3 2c cd bd b3 0a 54 be e2 8c b2 3e 6d 55 ac 3e
       -0.10018339 -0.20707206 0.3487311 0.33658925
000040 e3 d6 11 be 18 c1 4b bd 76 7c bb 3e 59 89 30 3d
       -0.14242129 -0.049744695 0.36618394 0.043099735
000050 a2 db 86 bd 3a 43 65 bd ee 68 78 be bd 83 c4 3d
       -0.065848604 -0.055972315 -0.24258777 0.095954396
000060 62 f8 8a bd 86 ac 8d be ed 77 a7 3d 74 fe e8 3e
       -0.067856565 -0.27670687 0.08177171 0.45506632
000070 a4 57 d3 3e 1a 66 8b 3e d4 f3 47 be 06 b0 42 bd
       0.41277802 0.27226335 -0.19526607 -0.04753115
000080 59 e9 77 3e 82 83 45 bd 66 24 8a bd 5e f2 26 be
       0.24210109 -0.04822112 -0.06745224 -0.16303393
000090 8a a1 7a 3e 7b 41 2e 3f 94 62 b1 3d 74 a8 51 bf
       0.24475685 0.68068665 0.086613804 -0.81897664
0000a0 ea 25 25 bd 72 10 ec 3d be 67 ae bd 82 d1 bb bd
       -0.04031936 0.11526574 -0.08515881 -0.0917082
0000b0 c6 4e 4f be e7 15 c4 bd 0d 7a 7f 3e 76 a0 a1 be
       -0.20244893 -0.0957449 0.24948902 -0.31567734
0000c0 34 10 12 3e f7 c5 2e be 39 3a b4 3d 2b 07 0c 3e
       0.14263994 -0.17067705 0.088001676 0.1367461
0000d0 54 7c f9 3e 46 f4 0a 3d 5f 44 ba 3e 4e bf 45 3d
       0.48727667 0.033924364 0.36380288 0.048278145
0000e0 d5 46 69 3e d3 ac 06 3a ca 22 a4 3d 5c dc 5d bd
       0.22780927 0.0005137447 0.08014448 -0.05416523
0000f0 2e 54 08 bd 35 ad 9a bd 97 ce 83 be f0 35 8c be
       -0.033283405 -0.07552568 -0.25743553 -0.273849
000100 d5 2b 3c 3d 9b dd 50 bd 3c b2 23 be f1 82 6c 3e
       0.04594024 -0.05099259 -0.1598596 0.23096825
000110 88 ad e7 be ed cd 88 bd 26 d3 09 3c 16 98 b6 bd
       -0.4524958 -0.06679902 0.008412158 -0.08915727
000120 62 23 f5 3d 84 67 45 3c 08 5f a6 3e ea af 1e 3e
       0.11969639 0.012048606 0.32494378 0.15496793
000130 0c db 52 3e a5 31 94 be 55 83 d4 bd b8 9c 44 3f
       0.20591372 -0.28944126 -0.10376612 0.76801634
000140 d1 e4 f7 bd 1b 68 76 be fd 86 d5 bd 87 6a 44 3e
       -0.1210419 -0.2406315 -0.104261376 0.19181262
000150 22 cf 66 bc 2b 6d d4 bd 85 09 03 3e f3 4c c1 bc
       -0.01408747 -0.10372385 0.127966 -0.023596263
000160 83 ed 0c 3e ae 62 ab be 6e 13 d4 3c 60 46 43 3d
       0.13762479 -0.33473724 0.025888171 0.047674537
000170 ff da d0 3e f4 06 a5 be 75 7e fa bd 29 d5 e0 3e
       0.4079208 -0.32231867 -0.12231151 0.43912628
000180 1d fa 3b be 38 6e 05 be ad 09 7e 3d 3c e9 2d 3f
       -0.1835713 -0.13030326 0.062020946 0.6793401
000190 22 32 6f be a8 ee 85 3c 73 77 a6 3d 3c 4d 8c 3e
       -0.23358968 0.016349152 0.08128252 0.27402675
0001a0 39 2f 88 be 40 5c 68 be 53 21 cd 3e 38 c3 57 3e
       -0.26598528 -0.2269144 0.40064487 0.21070564
0001b0 fb ad d7 bd b5 46 7f 3d 30 de 1a be e8 ce 16 3e
       -0.10531231 0.06232329 -0.1512382 0.14727366
0001c0 0c e1 60 3e c9 88 e7 3c 34 24 99 be 7e 85 f3 3d
       0.21960849 0.028263466 -0.29910433 0.11890696
0001d0 fb 73 af bd f6 ab e8 3e b8 cb 93 3c 94 c6 10 3e
       -0.085670434 0.45443696 0.018041477 0.14138252
0001e0 85 f2 23 be 8c 5d 9a bd 24 5a 41 bd f3 ed 16 be
       -0.16010483 -0.07537374 -0.047205105 -0.14739208
0001f0 10 9e 52 be d5 18 2a be d9 3a c2 be 22 0e 7a 3c
       -0.20568109 -0.16611035 -0.37935522 0.015262159
000200 81 0a 29 3e fd 6d d2 be 0e 57 61 3c e5 0b 3d be
       0.16507913 -0.4109954 0.013753666 -0.18461569
000210 da 12 4d 3e e8 8a d8 be 0d 8a 93 3a cd 07 aa 3e
       0.20026723 -0.42293477 0.0011256352 0.33209077
000220 db 9e 97 3d a4 4b a2 be 0b 0f 9c be 37 ac 88 be
       0.07403346 -0.31698334 -0.30480227 -0.2669389
000230 63 1a 64 bc ac 82 bc 3e 8c 02 d6 3a a2 f5 0e be
       -0.013922307 0.36818445 0.0016327663 -0.13960889
000240 2e 33 0b bd cc 5e c0 3e 7f 8a 44 be 89 0c 4f be
       -0.033984356 0.37572324 -0.19193457 -0.20219626
000250 4d 87 af be 7a de 82 3e c7 b5 ec 3e 02 49 fc 3e
       -0.34282914 0.2556036 0.46232435 0.4927445
000260 b4 4d 20 be 1f 3d 00 3e f0 17 e2 3d e0 8b 6d 3e
       -0.15654641 0.12523316 0.11039722 0.2319789
000270 62 6d a2 3e f1 cc 52 3e 03 35 a7 3e 2a a8 1b 3e
       0.31724077 0.20585991 0.32657632 0.15200868
000280 cf 6c 83 be 77 3a 6d 3e 38 9b d3 3d a6 14 3c 3e
       -0.25668952 0.23166834 0.1033234 0.18367252
000290 8d 18 c9 3e 48 98 fc 3d 4a 18 c9 bc c7 91 8c be
       0.39276543 0.12333733 -0.024547715 -0.2745497
0002a0 ca 12 53 3e e9 85 60 bd 79 66 c5 be 6e 37 07 3e
       0.20612636 -0.054815207 -0.38554743 0.13204738
0002b0 2d 6c c1 3e 64 11 d6 bd eb e2 81 3e d2 61 ad 3e
       0.37777844 -0.10452536 0.25368437 0.33863693
0002c0 c4 ab 5e be 5a 81 15 3c a5 fa 72 be d3 ed 70 bd
       -0.21745211 0.009125078 -0.23728426 -0.058820557
0002d0 6f 65 a1 3e 47 30 6b 3e 0d 3a 0e 3e e4 19 31 3e
       0.315227 0.22967635 0.13889332 0.17295033
0002e0 78 0c 59 bd ed bf 7e bd cc 49 17 3e 9c 7d 9d bd
       -0.052990407 -0.062194753 0.14774245 -0.07689974
0002f0 40 a1 7d be 92 e2 e1 3e 56 3d 84 bd cc 7d f3 3d
       -0.24768543 0.44118172 -0.064570114 0.11889228
000300 63 4a a6 3e b9 3d aa be f1 a9 28 be 89 3d 33 3f
       0.32478628 -0.33250216 -0.16471078 0.7001577
000310 ef 77 06 be f1 56 ea bd b5 e2 19 3e bf c7 af be
       -0.13131689 -0.11442364 0.15027888 -0.34332082
000320 f4 1b 67 3e 7d b6 23 bd b7 26 4a be 29 21 2e 3e
       0.22569257 -0.039968956 -0.19741331 0.17004837
000330 2c 04 1f 3e 28 1e 0a be 9a 38 c4 bd 04 8a 70 3e
       0.15528935 -0.13488066 -0.095811084 0.23490149
000340 12 84 9e be 0f 9c 3b 3e 0d 87 6c 3d ff d3 a0 be
       -0.30960137 0.1832125 0.057745982 -0.3141174
000350 b6 4a 23 be 17 56 af bd 89 65 3a 3e 3a bd dd 3d
       -0.15946469 -0.08561342 0.18202795 0.10827108
000360 b4 23 a6 3e a2 66 7f bc df b8 29 be 48 74 b1 3d
       0.32449114 -0.015588434 -0.16574429 0.08664757
000370 f7 36 e1 bd e8 63 98 bc c6 54 d5 bd 47 71 1c 3d
       -0.10996812 -0.018602327 -0.1041656 0.038193967
000380 ba ca ed bd 20 85 87 3e dd b1 ba 3e c9 b3 a0 3d
       -0.11610933 0.26468754 0.36463824 0.07846791
000390 ca 76 90 be b8 b8 8b 3d 0c 03 48 be d0 79 eb 3d
       -0.2821563 0.06822342 -0.19532412 0.11497843
0003a0 57 7b 72 be 66 54 b5 3e 11 1d 8a 3e 4b 5e a0 bd
       -0.23679863 0.35415953 0.269753 -0.07830485
0003b0 78 5d bc 3e f4 35 f8 3d 17 38 b6 be 91 08 a1 be
       0.3679006 0.12119666 -0.35589668 -0.31451848
0003c0 1c 01 a3 3e a8 f4 43 3e 0f 08 7f 3c 51 1b ab 3e
       0.31836784 0.19136298 0.015565886 0.33419278
0003d0 7a 7c 27 be 49 76 95 3e 35 5b 0b bf 1a 40 bb bd
       -0.16356078 0.29191807 -0.54436046 -0.09143086
0003e0 af 68 48 be c9 99 ca bc 62 19 9f 3e ed 4f 44 bd
       -0.19571184 -0.024731534 0.31074053 -0.047927786
0003f0 d3 68 e3 be 3c b0 03 bc 3d d4 a6 bd da 50 d5 be
       -0.44415912 -0.008037623 -0.0814595 -0.41663247

fc2_1.bias f4 [12]
000000 4d 99 eb 3c 9f df 34 3e 67 2c 2b bd b5 64 cc bc
       0.028759623 0.1766343 -0.041790392 -0.024950365
000010 10 f4 5f 3e 05 d4 9d ba 7b bc eb 3b 4a 37 3d bd
       0.21870446 -0.0012041336 0.0071940995 -0.046195306
000020 97 1f 60 be 2b 18 aa bc 21 10 87 bd e4 fe 24 bc
       -0.2188705 -0.020763477 -0.06594873 -0.010070536

fc2_2.weight f4 [6, 100]
000000 7f c7 97 3e 0d de d8 3b ea 12 29 bf 60 3d de be
       0.2964439 0.0066182674 -0.66044486 -0.434062
000010 45 b3 b1 3d 6b b8 a4 3c fd 94 c5 be ba 8e 32 3f
       0.08676771 0.020107469 -0.38590232 0.69749033
000020 6f b7 10 3f fa 5b 28 3f 93 d9 ac bc 02 63 0b bf
       0.565299 0.65765345 -0.021099841 -0.5444795
000030 bc c3 c0 3e 25 97 9f 3e ca 5b 82 3e 51 e4 61 be
       0.37649333 0.31170002 0.25460654 -0.22059752
000040 51 10 e0 bd b8 0b 37 bf 15 de c3 be 62 5f cb bd
       -0.10940612 -0.71502256 -0.38255373 -0.09930302
000050 24 e1 9e 3d 39 87 2e bc 66 bb 80 3d 6b d1 87 bd
       0.07757786 -0.010652357 0.062857434 -0.0663174
000060 0e 85 d0 bc eb c3 b2 3e 30 99 e2 bd 8b 28 8c 3e
       -0.02545407 0.349151 -0.110643744 0.27374682
000070 25 4f e9 be 9e d5 85 bd af 25 0e 3f 2d ff e4 bd
       -0.45568195 -0.06534885 0.5552625 -0.111814834
000080 63 1d c6 be 86 65 5c bd 68 e1 35 3e 10 53 17 3f
       -0.38694295 -0.053807758 0.17761767 0.5911112
000090 e5 00 af 3e 43 f9 f8 bd 4b 06 99 bc dc e7 63 be
       0.3418037 -0.12156918 -0.018679759 -0.22256416
0000a0 a4 39 89 3d 69 b0 91 3e b3 cf b6 3d 88 94 5a bd
       0.06700447 0.28454903 0.08926334 -0.053364307
0000b0 11 38 54 3d fe 2b da 3e 08 b1 06 bf 70 49 43 3e
       0.05181128 0.42611688 -0.5261388 0.19070983
0000c0 60 80 69 be 9b d4 91 be f6 e2 e0 3c 90 8c 29 3e
       -0.22802877 -0.28482518 0.027451973 0.16557527
0000d0 3a f0 b4 3e 8a 97 cb be 74 c8 43 be 61 64 43 bf
       0.35339528 -0.39764053 -0.19119436 -0.7632504
0000e0 fb f7 74 3e 2d a3 bc bc b0 3b 96 be 40 d3 25 3d
       0.23922722 -0.023027027 -0.29342413 0.040484667
0000f0 6a 43 d5 bd 5f a3 b8 bd 27 52 00 3e b9 b4 bd 3d
       -0.10413249 -0.090155356 0.12531339 0.09262986
000100 66 10 c6 3e 2e 3a 9a be e3 a4 12 3d db 0b a2 bd
       0.38684386 -0.30122513 0.03580178 -0.079124175
000110 b7 c0 64 3e fd 01 92 be 07 da 76 3e b9 5b 28 3f
       0.2233914 -0.28517142 0.24106608 0.6576496
000120 b0 28 96 3e 33 d5 fb bd 0b 3a cd be 61 e5 d2 3e
       0.29327917 -0.12296524 -0.40083346 0.41190627
000130 5f de 57 be fc 6b ba 3e b0 96 87 3e bf 49 0f 3f
       -0.21080922 0.3641051 0.26482153 0.559719
000140 fa b5 af 3e 9b 10 67 3e e6 e1 6f 3e 4f 60 08 3e
       0.34318525 0.22564928 0.23426017 0.13317989
000150 78 46 a1 be 23 fd cb bc c7 63 9b 3d 77 ca 16 be
       -0.31499076 -0.024900978 0.075873904 -0.14725672
000160 bb f2 87 3c 55 b9 cc bb fc a8 15 3d be 0d 89 bd
       0.016595235 -0.0062476792 0.03653811 -0.06692074
000170 26 57 77 be 83 ad 0e 3e 51 dc b3 be 4c 73 48 be
       -0.24154338 0.13933377 -0.35129026 -0.19575232
000180 52 20 41 3e 9e ac fa bc ec d4 1e 3d 70 f1 53 3e
       0.18859985 -0.030599888 0.038777277 0.2069757
000190 14 f6 7d 3f f0 89 df bc e2 04 63 bc 7f 9d 05 3e
       0.9920361 -0.027287453 -0.013856145 0.13048361
0001a0 46 e4 3e 3e d0 13 0e 3e 98 3c db be 40 3b bd bd
       0.18641767 0.13874745 -0.42819667 -0.09239817
0001b0 dc 1a ab 3d 99 03 d4 bc f8 a5 46 bf 19 dd aa 3d
       0.083547324 -0.025880622 -0.77597 0.08342952
0001c0 ab 01 3b bd b3 33 b1 bd 5a d6 7d be c5 2e c7 3d
       -0.045655888 -0.08652439 -0.247888 0.097257175
0001d0 d9 74 9e be f1 81 b0 3e 19 f8 54 bd 6a 34 9d 3c
       -0.30948523 0.34474137 -0.051994417 0.019190032
0001e0 42 60 0b be 3a bb 9f be be 05 01 3d ee 91 98 3d
       -0.13610938 -0.3119753 0.031499617 0.07449709
0001f0 32 ed fb 3d ff b5 3a be b6 e1 27 be 54 a0 ae be
       0.12301101 -0.18233489 -0.16394696 -0.34106696
000200 89 81 a9 3e 28 55 99 3e 84 68 da be 41 3d 33 3d
       0.3310664 0.29947782 -0.42657864 0.04375959
000210 5a 95 52 3e 50 95 b7 bc 78 44 99 3d bd cb af 3e
       0.20564786 -0.022410065 0.074837625 0.34335127
000220 9c 60 b7 be 62 e6 1c bf 30 a3 59 3e 5b b1 60 3e
       -0.35815895 -0.61289036 0.21253657 0.21942656
000230 f9 85 c5 be d1 b9 75 bc 9e 81 10 bd 13 b0 73 bd
       -0.38578776 -0.014997915 -0.035279863 -0.05949409
000240 d9 00 ed 3d 90 81 0e 3e c3 9c 26 3e 12 d7 81 be
       0.11572427 0.13916612 0.16270737 -0.25359398
000250 b7 4d 66 3e b9 5e c7 3e b8 f1 e1 bc 6a c3 6c be
       0.22490583 0.38939455 -0.02758108 -0.2312142
000260 4a 99 0c 3e 8c 05 d8 3e e0 68 66 be 58 89 8d 3d
       0.1373035 0.42191732 -0.22500944 0.06910962
000270 14 b0 29 be 62 a4 8d 3e f9 3e 0d 3d 63 a6 e3 3c
       -0.16571075 0.27664477 0.034483884 0.0277893
000280 c0 39 3d 3f cf 48 0a 3f 5d 71 19 bf b8 77 cc be
       0.73916245 0.5401735 -0.59938604 -0.39935088
000290 75 4e 12 be 1d 4b 25 3e 10 3e e4 bd d0 dd 1f be
       -0.14287741 0.16141935 -0.1114465 -0.15611959
0002a0 2a 89 16 be 9d 5e 87 bd 3f c0 90 3e d5 04 a4 3b
       -0.14700761 -0.06609843 0.28271672 0.005005459
0002b0 a9 e1 12 be 5a 35 ea 3d f8 18 be bb ba 91 79 be
       -0.14343895 0.11435957 -0.0058013164 -0.24371997
0002c0 a3 5d 01 3e 87 4a c7 be df 4a 81 3d fa 89 93 be
       0.12633376 -0.38924047 0.06313109 -0.28816205
0002d0 1d e3 83 be 99 fc a3 3d 38 55 21 be 42 99 13 be
       -0.2575921 0.080071636 -0.15755165 -0.14413932
0002e0 ca 13 4e 3d 6c 07 59 3d fb 4c 80 3e e4 d8 d7 3d
       0.05031184 0.052985594 0.2505873 0.105394155
0002f0 d4 c9 ca 3e 55 30 33 bd 43 7c 32 3e 66 ce 33 3d
       0.39607108 -0.043747265 0.17430215 0.04389801
000300 9a 13 ba be d2 af 85 bd f2 02 f5 3c 36 f9 47 3f
       -0.3634308 -0.06527676 0.029908631 0.7811464
000310 3a a0 2e be b9 3a 78 3d 8f 0f 75 bd 6c 4f 30 be
       -0.17053309 0.060602877 -0.05982929 -0.17217797
000320 4f 26 1e bf cb 72 bf 3c b4 72 fa 3d bc 7c cb be
       -0.61777204 0.023370167 0.12228909 -0.39743602
000330 b2 83 28 3e a8 2c 15 be fa e3 31 be 8a e0 f9 be
       0.16456488 -0.14567816 -0.17372122 -0.48804122
000340 41 16 2b 3e 55 bf ac be d6 65 1e 3d 18 62 ca be
       0.16707708 -0.33739725 0.038671337 -0.39527965
000350 8b f1 0c 3d d3 35 72 3e 5f b4 06 3d 49 b0 99 3e
       0.03441004 0.23653345 0.03288686 0.30017307
000360 45 2e cf 3e 7f 51 6a 3d 85 93 3b 3e 8e 61 3b 3d
       0.40464988 0.057206627 0.18317993 0.045747332
000370 16 0b 14 3c 54 1d b6 3d 09 64 63 3d 37 01 8b 3e
       0.009035846 0.08892313 0.055515323 0.27149364
000380 01 11 31 3e 3f 46 47 3e ef 30 61 3d 95 c2 ef 3d
       0.17291643 0.1946039 0.054978307 0.117070355
000390 15 f6 a5 3e 98 a9 18 3e 51 3f 95 be 84 fe df 3c
       0.32414308 0.14908445 -0.2914987 0.027343042
0003a0 35 2c 76 3e f3 dd 28 be 1d 02 49 be 91 06 ba bd
       0.24040301 -0.16490917 -0.19629712 -0.09083284
0003b0 99 46 86 be 8c cc e3 bd 73 7c 2a 3e 6a ee 0b bd
       -0.26225737 -0.111229986 0.16649036 -0.034162916
0003c0 b0 2c fb bc fe cb f3 be 17 34 42 bd 7a 51 db ba
       -0.030660957 -0.4761657 -0.047412958 -0.0016732656
0003d0 58 9e 18 3e 4c b3 1a bf 14 5c da 3e c9 79 b1 3e
       0.14904153 -0.60429835 0.42648375 0.34663227
0003e0 84 35 0b bc bb 86 5e 3e 18 84 e0 be b4 bd 5b be
       -0.008496646 0.21731083 -0.4385078 -0.21459085
0003f0 37 33 3a be 09 f0 48 bc 74 a4 6d 3d 61 35 d0 3d
       -0.181836 -0.01226426 0.058018163 0.10166431

fc2_2.bias f4 [6]
000000 37 35 f8 3d 22 15 9d bd 5d d6 ac bd d3 1d ce bd
       0.12119525 -0.076700464 -0.08439324 -0.10064282
000010 f0 92 b8 3d ec 02 4e 3d
       0.09012401 0.050295755
