Assets/Models/NNBaseline1/RegenerateAction.onnx (onnx, 42963 bytes, 6 tensors)

fc1.weight f4 [100, 51]
00000000: 6cb2 93bc 4ca0 4c3d 444c 0f3d 5542 823c
00000010: a990 883b 6b47 3bbd db25 313c 2dac 643c
00000020: f627 ec3b d017 87bd fc31 ac3d 2512 a8bc
00000030: 1e42 d73b 65a9 8b3c 4dd1 1d3d 427e 86bb
00000040: 8d28 133c 529c 23bd 977f a53c a723 e33c
00000050: 01f6 60bc 95ae d73d 814f 7ebb eab1 70b9
00000060: 0078 d92c c5fc af3d c928 dc3d 34e2 eb3c
00000070: 25e4 053c d407 c2bb 4e12 b13c 0c67 b838
00000080: ea99 f0bc 28de 6a3e 2ae0 a53c e1d8 513c
00000090: 17f8 a83c 38ce cabe 2371 83bc c657 93bb
000000a0: 3d0c 09bd 7cdf ca3e cfa8 ea3c 4a17 883c
000000b0: 0c56 91bc 6976 7bbe 7ef5 cd3c b6d0 b1bd
000000c0: 5d2e b93e ee0d 043c 28f2 693c 34bc ba3a
000000d0: 53cb 453e 872b 893c 8812 26bd b6fb a8bb
000000e0: dd84 a83e 9ef6 b8bd f023 4c3a 6933 fa3c
000000f0: 902f c6bc a6a4 723d 3460 b23c 70b8 163d
00000100: 4efc 28be d7ce 203d dda6 7b3d 4c57 9d3c
00000110: 1e37 d1bd 4190 5b3d 7492 773b 3b6c 56bc
00000120: 973b c63c 916e 68bd fe99 9b3d 0038 5cad
00000130: 4f06 0bbe b850 8abd a3b8 b73d fb51 373b
00000140: c4d2 78be 8fd7 4dbc b4f3 003e 9e13 35bd
00000150: 8af9 d73e 2070 b23c 5546 cd3d b63d a4b9
00000160: b1cd c4bd e219 e53c fdf3 b13c 3572 5cbd
00000170: 4617 96bd 4f85 8bbd 6b8b 7bbb 09a6 81bb
00000180: 35b1 02be cfbd debd a9ed 263e 82aa 59bd
00000190: 5bc8 ed3c 3358 753d b2b6 a0bc 031e c1be
000001a0: 349a 9a3d 1999 ba3d 2ab6 d6ba 4cae 2b3e
000001b0: 8dbc 9abc 72ed 6c3d c90c 4fbc 96d0 0c3e
000001c0: b99a d93d 2629 9a3d 282c 113b 53ee a2bd
000001d0: 6069 443c 3fa7 dd3d c8f9 e4bc d525 093e
000001e0: 1de7 c93c 5609 093d d42c b73c e1b0 1bbe
000001f0: a4e2 cd3c 2698 c03d 5d3f eabb 289c 10be
00000200: db64 963c e7bf 46bd 39b9 80bc 1d67 e3bb
00000210: 6d61 0b3d c09e c0bc dd72 75bd ffcd ec3d
00000220: 300a d43c 41db 8a3b 51bb a33c 975b a6bd
00000230: a1b7 0f3c 1355 c5bc 6c23 7bbc 985e 113d
00000240: 626c 3c3d 63a8 b3bb 91cf 9ebc 85cd 85bd
00000250: 72d6 b83c fadc 44bd 39ac 4ebe 6982 163c
00000260: 6261 d93c 937c 82ba b11f 12bd 34c1 543b
00000270: 6202 ea3b 700e 093b 97d5 8abd cff4 063b
00000280: c532 933c fa50 8e39 acd6 2e3e 5db5 cb3b
00000290: 4d93 9bbb 440d 10bc 5f92 82bd 8d14 5a3c
000002a0: ef9a 483d fa34 60bc fd99 8fbc 688e 973c
000002b0: ed93 463c 275f cf3b f02e 2bbd 5a59 12bc
000002c0: 7850 873c 5866 81bb 4059 4d3e 32dc 1e3d
000002d0: ef02 0a3d d77d 86bb f24c 8fbc 86fd bf3c
000002e0: 6f96 0d3c dcb0 c53c 2a20 063e 3598 ba3b
000002f0: c9a3 e73b bc3e 853b 8f26 e2bc c370 00bc
00000300: 4b51 1ebc 1d5f 97b9 e5c6 14be 93de d8bc
00000310: f5bf eebc 3e2a 043c c7a0 973d eee3 c63c
00000320: dfac 313c 8ed3 2c3e 15ef 163d 6b0e a33c
00000330: 5108 40bc d7ba b83c 2f2a 5a3d e05b db3c
00000340: 8fec 953b c8d5 c7bd e8ec 5d3d 5c2d 313d
00000350: 90d9 153c 4658 02be c957 5f3d 5144 3bbb
00000360: 6440 773b 2454 0e3c cc7e 513d b8e9 3d3c
00000370: 6d0c df3c aa8e 9b3d d279 afbc 9835 443c
00000380: 3dfc 99bc 5752 183e 9aef 82bc 700d 6e3b
00000390: 4aff 8030 59cb c5bb 4e62 b33d 2fc3 3c3d
000003a0: 40d7 b23b c7ca 9dbe 24d5 863c bfc9 7f3c
000003b0: fa38 5fbc ceca d03e 6bef 623d 95d1 4e3d
000003c0: a11e 013d 50e6 75be e802 723a 6680 ac3c
000003d0: 6c43 1dbd 0bab 763e 717c bd3c c6de c2bb
000003e0: 8143 9abb da3f 8bbe e4ba 353c ef28 56bd
000003f0: d62d 953e 5996 523c 9411 95bc a8ef 72bb
-0.018029414 0.04995756 0.034984842 0.01590077 0.0041676355 -0.045722406 0.010812248 0.0139570655
0.007206912 -0.06596339 0.08407971 -0.020516464 0.006569161 0.017048547 0.038529683 -0.0041044066
0.008981836 -0.039944 0.020202441 0.027726961 -0.013730527 0.10531346 -0.0038804712 -0.00022954462
6.1808336e-12 0.08593134 0.10749967 0.028794385 0.00817207 -0.0059213433 0.021615174 8.792998e-05
-0.029370267 0.22936308 0.020248491 0.012808056 0.020626111 -0.39610457 -0.016045159 -0.0044965474
-0.033458937 0.3962363 0.028644947 0.016612668 -0.017741226 -0.24556889 0.025141474 -0.086823866
0.36168185 0.008059962 0.014278926 0.0014246763 0.19315843 0.016744388 -0.040545017 -0.0051569594
0.32913867 -0.090314135 0.00077873375 0.030542092 -0.024192601 0.059239052 0.021774389 0.036796987
-0.16502497 0.039259758 0.06143843 0.019206665 -0.10215591 0.053604368 0.0037776502 -0.013087328
0.024198337 -0.05674607 0.07597731 -1.2517987e-11 -0.13576625 -0.06753677 0.089707635 0.0027972448
-0.2429915 -0.0125636 0.12592965 -0.04420816 0.4218257 0.021781981 0.100231804 -0.00031326496
-0.09609545 0.027966443 0.021722788 -0.053819854 -0.07328658 -0.06812536 -0.003838266 -0.0039565605
-0.12762912 -0.10876047 0.16301598 -0.053141125 0.029026201 0.059898566 -0.019618366 -0.3771821
0.07548943 0.09111232 -0.0016381193 0.16765708 -0.018888736 0.057843633 -0.012637326 0.13751444
0.10625214 0.0752738 0.0022151563 -0.07955613 0.011988014 0.10822915 -0.027951136 0.13393338
0.024646336 0.03345617 0.022360243 -0.15204193 0.025132485 0.0940402 -0.007148667 -0.14122069
0.018358639 -0.048522856 -0.015713321 -0.0069397823 0.03402846 -0.023513198 -0.059923995 0.11562728
0.025883764 0.004237563 0.01998678 -0.08122938 0.008771808 -0.024088418 -0.015328269 0.035490602
0.0460018 -0.0054827197 -0.019386085 -0.0653334 0.022563193 -0.048062302 -0.20182885 0.009186366
0.026535694 -0.0009955339 -0.035674755 0.003246379 0.0071413973 0.0020913146 -0.0677902 0.0020592695
0.017968545 0.00027144683 0.17074078 0.0062166885 -0.004747784 -0.008792225 -0.06375574 0.013310564
0.04897588 -0.013684506 -0.017529482 0.018500522 0.012120229 0.0063284817 -0.04179281 -0.008932436
0.016517863 -0.003948968 0.20053577 0.038784213 0.033694204 -0.0041043567 -0.017492745 0.02343632
0.008641823 0.024132185 0.13098207 0.005694414 0.0070690853 0.0040663164 -0.027606277 -0.0078393845
-0.009662936 -0.0002887183 -0.14528997 -0.02647332 -0.029144267 0.008066712 0.07403713 0.024278607
0.010844438 0.16877577 0.0368491 0.019904336 -0.011720733 0.02255003 0.053262886 0.026777208
0.004575319 -0.097575724 0.05418101 0.04325615 0.009146109 -0.12728986 0.054527078 -0.0028574655
0.0037727589 0.008687053 0.051146314 0.011591367 0.027227605 0.075955704 -0.021420393 0.011975668
-0.018797034 0.1487516 -0.015983392 0.0036323927 9.385783e-10 -0.006036204 0.087589845 0.04608458
0.0054577887 -0.3081877 0.016459055 0.015612065 -0.013624424 0.40779728 0.055404108 0.05049284
0.03152335 -0.24013638 0.00092320004 0.021057319 -0.038394377 0.24088685 0.023130627 -0.005946967
-0.004707754 -0.27197152 0.0110919215 -0.05228513 0.29136533 0.0128532285 -0.018196858 -0.0037069116

fc1.bias f4 [100]
00000000: cf61 a5bc 96d0 b63d c392 1c3e 5439 683c
00000010: 9c78 4bbb bbfc f33c d3b7 a83c cd53 d13c
00000020: 8234 af3c 844b 28bd 1351 563d b066 603d
00000030: 9696 1c3d d6d4 003e 364a c63d e8c7 0bbd
00000040: af24 c63a d26e e23d d41c 173e 1468 c3ba
00000050: 8bc4 543d 9ef9 123e 1633 273e 8981 703e
00000060: 8e48 883d 6c23 0c3a f399 983d 1e89 583c
00000070: 551e a5bc a2c4 72bd 7612 cabb a651 4a3e
00000080: 8e18 13bd 6546 eebb b4e1 113b 59d8 20bc
00000090: 23f9 f13d 5048 c23d 2243 8abb c8f4 0c3e
000000a0: 9815 a93c 0e29 e83d 1836 6f3d cf48 ad3d
000000b0: 47e4 643d d96f 1abc 6bfb f539 f374 92bc
000000c0: 2b77 833c 6726 fd3c 077f 403e 48ef c43d
000000d0: 6746 3e3c a9b2 383e 1abd 2b3e db06 cf3c
000000e0: 50b5 883e 897b a33d 1a16 01bd babd 583e
000000f0: 2b56 2c3e 6a79 303a db6e 073e b6a4 423d
00000100: af53 a9bc 4487 2b3e 3b8a 083e 9bb3 a53d
00000110: cfb2 883e e821 6abd e010 573e 5f0f 183e
00000120: 9fb6 51bc 3567 843d 6bdb 713c 2d33 e93d
00000130: 96bd e6bc 5bbc d73c 6e8a 5e3d c6e7 7b3d
00000140: 9fd1 423e 97b9 353a 745d 273b 1e2b 353e
00000150: 2719 9a3e 8b5a 5139 4d1d 473e 6a34 8e3d
00000160: 6c85 1b3e 7baf 103e 6344 953d 2e7f 923c
00000170: 48bf 183c f994 89bc daa5 b53d 2777 073e
00000180: f57b a6bb 2f40 023d 5c82 fa3d 1716 243d
-0.02018824 0.08926503 0.1529036 0.014173824 -0.003104723 0.029783597 0.020595467 0.025552655
0.021387342 -0.041087642 0.052323412 0.05478543 0.038229547 0.1258119 0.09682123 -0.034126192
0.0015117134 0.110562935 0.14757091 -0.0014908337 0.05194525 0.14353034 0.16328081 0.23486914
0.06654464 0.00053458544 0.074512385 0.013216285 -0.020156065 -0.059269555 -0.0061667515 0.19757709
-0.03591209 -0.0072715753 0.0022259774 -0.009817206 0.11815097 0.09486449 -0.0042194286 0.13765252
0.02064018 0.113359556 0.058401197 0.08461153 0.055881765 -0.009426081 0.00046917362 -0.017878031
0.016048035 0.0309021 0.18798457 0.09615952 0.011613465 0.18036903 0.16771355 0.025271824
0.2670083 0.07982547 -0.03151522 0.21166125 0.16829745 0.00067319593 0.13225882 0.04752036
-0.020669786 0.16750818 0.1333398 0.08090898 0.2669892 -0.05716124 0.21002531 0.14849614
-0.012799888 0.06464998 0.014761786 0.11386714 -0.028166573 0.026334932 0.054331236 0.061500333
0.19025277 0.0006932257 0.002553788 0.17692229 0.30097315 0.00019965523 0.19444771 0.06943591
0.15187615 0.1412944 0.07288434 0.01788291 0.009322949 -0.016794669 0.08869524 0.13229047
-0.005080695 0.03179949 0.12231895 0.04006013

fc2_1.weight f4 [12, 100]
00000000: 46ea f6bc 8e68 0f3e 6be5 a5be 5807 64bd
00000010: cf1d 16bd 64dd 1abe 5780 12be 2409 06be
00000020: 5d72 37bd 1801 3abe 07c7 d73d 2063 2abd
00000030: ea45 debc fa21 183f c06a 713d b91d 22be
00000040: e385 913c 4995 af3e f598 08bf 6695 bfbd
00000050: f516 96be c4e9 933d 5abc 94be 5500 d93d
00000060: 7424 cabd 3594 79bb 3d31 86be 17aa c0bd
00000070: 4a3a e8bd 05d6 ffbd 0013 09be fa09 1f3e
00000080: 597f 7a3c 67d1 a03d 187c b73a 2f62 08be
00000090: 9ad7 f33e 2b5f 35bc 4219 a0bd 9ba5 173e
000000a0: 0cb2 95bd 77ab 8cbd 6f5b 7e3e bbfc b3bd
000000b0: 4c32 d5bc b97b 003e 3a64 9ebc 56a3 d23b
000000c0: 3eae 87bd 422d c0bd b0b0 923e f308 55be
000000d0: 1193 1abe 883d b83c 0bd8 d63e 60fe 92bd
000000e0: 7b69 613e 0b35 5bbe f428 22be 9a18 013e
000000f0: 384d 563e b92a 893e c9b8 a43e 3e22 d2bd
00000100: dfb2 5bbd bfb2 c33c 6a56 aabe 5bd3 00be
00000110: b792 953e 41f6 fdbd cb9e 953e 284b 27be
00000120: 3dd4 643e d851 223e d128 58be a876 06be
00000130: 836b f7bd b7bf 05be 2355 dfbd 4053 0fbe
00000140: 2d5e 323e 85fa 6e3a 1fa8 57be aa6a 5a3e
00000150: c962 9a3e 4445 e5bd d129 043f 2e6f 713b
00000160: 3ac5 823e 8950 df3e 2cf5 913e ba03 d7bd
00000170: d817 72be b1eb 9e3d 4139 f4bd 5863 b73e
00000180: 5a16 f9bd 9125 423d fed4 bdbe 5316 33be
00000190: 14bf e5bd ee59 a23e 23a3 7d3e f54d 9fbd
000001a0: 0a66 15be 2f7d 1bbe 9539 22be c7ac 03be
000001b0: ea6d 92bd 3890 303e ad63 893e 3654 9dbd
000001c0: fe40 fb3b 8c6d d23e 807e 85bd 9881 1fbe
000001d0: 6fd7 48bb d402 3fbe 2149 5c3e 2326 b4bd
000001e0: 8846 48be 8f78 4a3d a24b b03e 93cf 313e
000001f0: fabf 213e a465 0ebb 1fed 023e 5237 a33c
00000200: cde1 95be eff5 e83d 0b0a 1cbe ed6a 393e
00000210: 7f2c 3cbc f603 d4bd 95d6 e8bb 23fc 0cbe
00000220: b84f 973e b4a1 753c 14dd e9bd 633e 9abd
00000230: 6565 8bbc 9273 193e 3d6b 94bd d03c 793c
00000240: 0781 e03c c676 1dbe 530f 20bd cdca c9bd
00000250: a45c 8dbe b442 023d 3f1e 4ebe 5f18 ff3d
00000260: 5744 00be b4f5 5c3e 75bb a53e 365a 5f3e
00000270: 4a72 ce3d b53a 0cbe ab8b 6cbe 200a 5b3e
00000280: a362 d23e 6015 48be b625 6bbd 9ae5 9f3e
00000290: abfd 77be daf6 503e 023e 803e 79b3 c23e
000002a0: ba43 19bf cdb3 74be ab87 fdbe d0fb 063f
000002b0: 4d9a 11be 41d6 20be 1f7b debc 1a2e 29bd
000002c0: fb58 05be 92d0 92bc df3b 65be 7492 0c3e
000002d0: 8fd6 ac3e bd82 07ba 5e3a c83d dfb5 093e
000002e0: 2024 9c3c 468e 273d a03c 30bd 6301 04be
000002f0: 3ac5 613c 743b e33e aead 6abe 53d1 47be
00000300: 9a6c ba3e 1642 e1bd 8cdc 15be ee29 dbbd
00000310: 7e41 31bd 52a3 c8bd 8222 ad3e 7974 75be
00000320: 45b2 02be 217e ebbd 0888 803e bfdf 173e
00000330: 3301 1fbe 088b 0fbe 16bf fcbd aac7 bebd
00000340: 4beb 533a a4ac 48be 4af7 be3d 1dab 88bc
00000350: ed26 13be 467b 4bbd 0001 a83e 6d8c 23be
00000360: 87cb 86bb c39d 083f 6e37 d83e 1bab e53e
00000370: 6e8a 383e 1fd0 573e 6884 6b3e ce90 c43e
00000380: 7c49 37be 2d44 433b 81ea 823e 0541 8d3d
00000390: de6e 293e b75d 2dbe 51fe 49be 60eb 983d
000003a0: adfb 4a3c 1f17 d6bd cdf8 10bc 2e5f ffbd
000003b0: dd61 02bf a6e9 113e 84e3 93bd b904 ebbd
000003c0: ffac 733c 83be 023e 6006 153e 1136 273e
000003d0: ba03 35bd bcc5 e8bd 032d f53d 7c69 0bbd
000003e0: 1802 803e 3845 8fbe 215c a0be 7555 95be
000003f0: 2294 003e 1b92 c13d 5c55 923d 7fff 05be
-0.030141007 0.14004728 -0.32401595 -0.055671066 -0.03664952 -0.15123516 -0.1430677 -0.13089424
-0.0447868 -0.1816448 0.10536008 -0.04159844 -0.027132947 0.59426844 0.058939695 -0.15831651
0.017764037 0.34293583 -0.53358394 -0.09354667 -0.2931439 0.07222322 -0.2904995 0.105957665
-0.09870234 -0.0038082723 -0.2620944 -0.09407442 -0.11339243 -0.12491993 -0.13386154 0.1553115
0.015289151 0.0785244 0.0013998775 -0.13318704 0.47625428 -0.011070053 -0.078173175 0.14809267
-0.0730935 -0.06868642 0.24839567 -0.08788439 -0.02602496 0.12547196 -0.019334901 0.0064281626
-0.06625031 -0.09383632 0.28650427 -0.20804195 -0.15095164 0.022490278 0.41961703 -0.071774244
0.22012894 -0.21406953 -0.15835935 0.12607041 0.20927894 0.26790407 0.3217223 -0.102604374
-0.05363738 0.023888944 -0.33269054 -0.12580626 0.29213497 -0.12400485 0.29222712 -0.16337264
0.22346587 0.15851533 -0.2110932 -0.13131201 -0.12081053 -0.13061415 -0.109049104 -0.13996601
0.17418738 0.000911631 -0.21060227 0.21329752 0.30153492 -0.11194852 0.51626307 0.003683995
0.25541097 0.4361613 0.28507364 -0.10498758 -0.23641908 0.07759798 -0.11924983 0.3581798
-0.12162466 0.047399107 -0.37076563 -0.17488985 -0.11218086 0.31709236 0.24769263 -0.07778541
-0.14589706 -0.15184473 -0.15842278 -0.12858878 -0.07149871 0.17242515 0.2683386 -0.076820776
0.00766766 0.41099203 -0.065182686 -0.1557678 -0.0030645987 -0.18653423 0.21512271 -0.087963365
-0.19558156 0.04943138 0.34432703 0.1736434 0.1579589 -0.0021728063 0.12785767 0.01992384
-0.29273835 0.11375033 -0.15238206 0.18107195 -0.011485218 -0.10352318 -0.0071056583 -0.13768058
0.29553008 0.014992166 -0.114191204 -0.075314306 -0.017016122 0.14985493 -0.072470166 0.015212253
0.027405275 -0.1537734 -0.039077114 -0.09853134 -0.27609742 0.031801894 -0.20128725 0.1245582
-0.1252607 0.21578103 0.3236958 0.21811756 0.10080393 -0.1369427 -0.23100154 0.21390581
0.4109088 -0.19539404 -0.05740901 0.3122986 -0.2421786 0.20406666 0.25047308 0.38027552
-0.5986897 -0.23896714 -0.4951757 0.52727985 -0.14219017 -0.15706731 -0.027158318 -0.04130373
-0.13022225 -0.01792172 -0.2238612 0.13727742 0.33757445 -0.0005169323 0.09776758 0.13448285
0.019060194 0.040907167 -0.043026567 -0.12891154 0.013779933 0.44381297 -0.22917816 -0.19513445
0.3641098 -0.10998933 -0.14634913 -0.10701357 -0.04327535 -0.09796776 0.3381539 -0.23970212
-0.12763317 -0.114986666 0.25103784 0.14831446 -0.15527801 -0.1401788 -0.12341134 -0.09315427
0.00080840726 -0.19597107 0.093245104 -0.016683156 -0.14370318 -0.04967811 0.32813263 -0.15971537
-0.004113618 0.53365725 0.4222979 0.44857106 0.18021557 0.21075486 0.22999728 0.38391727
-0.17899126 0.0029795275 0.25569537 0.06897167 0.16546199 -0.1693028 -0.1972592 0.07466769
0.012389106 -0.10453629 -0.008848381 -0.12469326 -0.5093058 0.14249286 -0.072211295 -0.1147551
0.014872788 0.12767987 0.14553213 0.16329218 -0.044193007 -0.1136584 0.11971476 -0.034036145
0.25001597 -0.27982497 -0.3132029 -0.2916676 0.12556508 0.094516955 0.07145187 -0.13085745

fc2_1.bias f4 [12]
00000000: 371a 1b3c 4fc3 3abc 7e06 593c 561c 833d
00000010: 4adc 023d a336 af3c 72f6 25bd 7cff 61bd
00000020: 1ecd 4bbd a380 623d b121 883c 3131 62bd
0.009466699 -0.011399104 0.013246177 0.06401889 0.031948365 0.021388358 -0.04051823 -0.05517529
-0.049756162 0.05529846 0.016617628 -0.055222694

fc2_2.weight f4 [7, 100]
00000000: f5c9 b2bc f5ee 8b3c b03b 72bd ec7e 05bd
00000010: a552 703b aced 1cbe 9465 24be b7cd b7bd
00000020: 0c11 4cbc b797 9d3d 2b34 a03d 7ca0 d8bd
00000030: b9eb 43be 80f5 de3e f5da 55bd 88ca 30be
00000040: 0fa9 c13a ade2 c1bc 67e6 973d 3b83 2e3e
00000050: d6ab 403e bdd5 ba3d 47a2 3a3d 4d4a 933d
00000060: 401d 3e3d 414f 4b3a 1739 6b3d c8e0 263c
00000070: c282 6e3e e6ca 9a3e a0c1 66be 5b47 b83d
00000080: b784 23bd 5cbf c1bc 94f8 3abb f25f 22bd
00000090: 7c62 133e a43a 37be 9512 74bd f49c 21be
000000a0: eed7 06bd d14a 793e b629 3ebd cd30 13bf
000000b0: 66c8 50be 58fa 1b3d 2814 e7bc 1ca3 43bd
000000c0: bcd5 4d3e 6ddf 163e 3a4c 4fbb 44ce cebe
000000d0: e7ca 20bd c4d1 2d3d 0255 823d f40b 9ebd
000000e0: 7457 0b3e 1ac3 833b 8e89 3abe 8e12 833e
000000f0: 6e77 ec3e 9512 9abd 153e 813e 7272 c9bd
00000100: d3d5 d1bd d366 193e 8116 773e ffcf 6abe
00000110: cef1 c03d f5b4 a73d af6b 053e 6aba ca3d
00000120: 4877 aa3c 4b70 cfbd 1229 e13b 163b 8fbe
00000130: 6367 0bbe 4654 363d db38 72be f545 b8be
00000140: 1ee1 803e 33af 5bba 185e 38be 8be9 e43d
00000150: 5134 693b 94fc 653e 4a5d 033e 90a1 48be
00000160: b067 f03d 07db 3c3e bb04 8d3c f5d2 013e
00000170: 5213 593e 3cdb c0bd b89f b43d 1acb 013e
00000180: be4b 943d a25d 37be 0ec3 003e c443 1dbe
00000190: e1b7 4ebd f38d 2fbd 6371 8ebd 9af9 10bd
000001a0: 28bf 5ebd af92 a6bd cc3a 87bd d1da 8cbd
000001b0: dce4 09bd 1d44 46bd 8bce 5dbd d5eb 1bbd
000001c0: e5df 70bd f4ec 6fbd 39ab e7bc 0744 54bd
000001d0: 1ab6 40ba 2812 7dbd aa9f a3bd d527 2fbd
000001e0: 82e1 acbd c657 67bd 7575 91bd 690e acbd
000001f0: 34f7 24bd b827 7dba 3c0f 21bd 0200 e7bc
00000200: 97a9 96bd 5333 3bbd 678d 6fbd 650c 98bd
00000210: ed46 a3bb 693b 3bbd f6f3 30bb 5262 48bd
00000220: 627f 6dbd ee90 25bd 1b0a 1dbd 01b4 25bd
00000230: a764 18bd 54b7 babd 867f 52bd 74ce 3dbd
00000240: f1c3 d5bc 522c 6cbd 3672 20bd 1434 34bd
00000250: 8f03 8fbd 7bd0 7fbd b448 adbd 1ccd 9cbd
00000260: c442 47bd bcb9 8abd 360f 66bd f39c 05bd
00000270: 423f a9bd 2f94 8abd c178 88bd d20f 92bd
00000280: 38e8 a3bd 6476 5bbd 6da4 80bd f111 efbc
00000290: 94d4 85bd 24a4 59bd 89d4 72bd 33da 17bd
000002a0: 2eb9 cbbd 7ff4 94bd c27c 9dbd d1a4 98bd
000002b0: 80ea 22bd 6471 26bd a0f6 8abd 3149 bcbd
000002c0: 150f 2fbd f3fd 41bd 040d 57bd b31e 96bd
000002d0: 9608 99bd 5127 00ba 21b1 81bd 0b41 81bd
000002e0: e0e7 8abd 2f3d 06bd 9a67 a1bd 1d41 67bd
000002f0: ff36 67bd 82eb 95bd 84ac 0cbd 76fa 7cbd
00000300: 9737 6dbd a1a6 42bd b706 6dbd c43a 7cbd
00000310: 820d 34bd 9c74 7fbd a2e8 62bd 4267 71bd
00000320: c7ec 483e 18f3 8dbe 6232 4b3d 8e18 fa3d
00000330: 6990 163e afd0 833e 9ae9 853e 265f 183e
00000340: 0557 cc3d f777 603e 4737 773e affb ce3c
00000350: ee7f 153e c098 c73d 7a75 623d 9220 8c3e
00000360: d600 fdba 902b acbe b3d3 c7bd eb69 a53d
00000370: 6425 24bc 8c89 06be 9775 36be f6ac 0bbf
00000380: 5fb1 91be cea6 063b 2b3f 86bd 33cc cd3d
00000390: efeb c0bd 3966 973e 15a9 4b3e a2e0 15be
000003a0: cbd8 9ebd 6051 663e 8629 47bb 9710 1c3e
000003b0: 5867 cabd 1eba cabe 5205 313e 1dc9 e0be
000003c0: 3d94 433e 228b 363e 4d10 533e 17b6 c53c
000003d0: f8b3 9dbe c0a3 873e 9757 a63d d939 723e
000003e0: 0b71 7a3e db5f 023e d256 f6be 4b8a 0e3e
000003f0: 5b30 623e 3dc3 a7be 4ac6 24be 5fdc 90bb
-0.021824816 0.017081717 -0.059138954 -0.032591745 0.0036670354 -0.1532504 -0.16054374 -0.08974784
-0.012455236 0.07694953 0.0782245 -0.10577485 -0.1913289 0.43546677 -0.052210767 -0.1726476
0.0014775115 -0.023667658 0.07416993 0.17042248 0.1881555 0.091227986 0.045564916 0.07191906
0.046414614 0.0007755645 0.057427492 0.010185428 0.23292068 0.30232924 -0.225348 0.08997985
-0.03992149 -0.023650818 -0.0028529512 -0.03964228 0.14393038 -0.17893463 -0.059588034 -0.15782529
-0.03292077 0.24344946 -0.046426497 -0.5749634 -0.20388946 0.038080543 -0.028207853 -0.047762975
0.20101064 0.14733668 -0.0031631128 -0.40391743 -0.039256003 0.042436376 0.0636387 -0.07717124
0.1360758 0.0040210607 -0.18216535 0.25600094 0.46184868 -0.075230755 0.25242677 -0.09836282
-0.10245862 0.1498063 0.24129678 -0.22930907 0.094211206 0.08188812 0.1302936 0.09898837
0.02080883 -0.1012884 0.006871351 -0.27974766 -0.13613658 0.044513963 -0.23654501 -0.35990873
0.2517175 -0.0008380294 -0.18004644 0.11177357 0.0035584162 0.22459632 0.12828556 -0.19592881
0.11738527 0.18442927 0.01721417 0.1267813 0.21198776 -0.09416816 0.088195264 0.12675133
0.07241009 -0.17906812 0.12574407 -0.15357882 -0.05046833 -0.042859983 -0.069552206 -0.03539429
-0.05438152 -0.081334464 -0.066030115 -0.068776734 -0.033665523 -0.0484048 -0.054152053 -0.038066704
-0.058807272 -0.058575585 -0.028279888 -0.05182269 -0.0007351354 -0.061784893 -0.07989438 -0.042762596
-0.0844145 -0.05648019 -0.07102481 -0.08401186 -0.040274814 -0.00096571026 -0.03932117 -0.028198246
-0.073565654 -0.045703243 -0.05848446 -0.07424239 -0.0049828202 -0.045710955 -0.002700088 -0.04892189
-0.05798281 -0.04042142 -0.038339715 -0.04045487 -0.037205365 -0.09116998 -0.051391147 -0.046339467
-0.026094409 -0.057659455 -0.03917142 -0.043994978 -0.069831006 -0.06245468 -0.08461133 -0.07656309
-0.048647657 -0.06773707 -0.05616685 -0.03262038 -0.082640186 -0.06766545 -0.06663657 -0.07131924
-0.080032766 -0.053579703 -0.06281362 -0.02918336 -0.06534687 -0.053135052 -0.05928472 -0.037073325
-0.099474296 -0.072731964 -0.07689811 -0.07453311 -0.039774418 -0.04063548 -0.06785321 -0.09193648
-0.042738993 -0.047361325 -0.052502647 -0.07330074 -0.07472341 -0.0004888671 -0.06332613 -0.06311234
-0.06782508 -0.032773193 -0.078810886 -0.05645858 -0.056448933 -0.0732031 -0.03434421 -0.061762296
-0.057914343 -0.04752219 -0.057867732 -0.06157948 -0.043958195 -0.062367067 -0.055397637 -0.058936365
0.19621573 -0.27724528 0.049608596 0.12211715 0.14703526 0.2574515 0.26154786 0.14880046
0.09977535 0.21920763 0.2414218 0.025266496 0.14599583 0.097459316 0.055287816 0.273686
-0.0019302617 -0.33626986 -0.09757175 0.08076843 -0.01001868 -0.13138407 -0.17818294 -0.5456079
-0.28455636 0.00205462 -0.06555017 0.100487135 -0.09420001 0.29570177 0.19888718 -0.14636472
-0.07756194 0.2249198 -0.003038974 0.15240704 -0.098829925 -0.3959512 0.17287186 -0.43903437
0.19099517 0.17826512 0.20611687 0.024134679 -0.30801368 0.2649212 0.08122175 0.2365488
0.24457185 0.12731878 -0.48113114 0.13919942 0.22088759 -0.32766142 -0.16091266 -0.0044208015

fc2_2.bias f4 [7]
00000000: 9e3f 9fbc b6d6 1dbe 6f29 253c 89ee 71bd
00000010: a0b4 34bd 9390 703e b70c 6abc
-0.019439515 -0.15413937 0.010080679 -0.059065375 -0.04411757 0.2349265 -0.014285258
